checkpoint_critic.pth (torch_old, 580612 bytes, 5 tensors)

fcs1.weight f4 [512, 24]
0	0x3ea9ae42	0.3314076
1	0x3dd33d00	0.10314369
2	0xbc2ad4b1	-0.010426686
3	0x3cc580e8	0.024109319
4	0xbbb1fef8	-0.005432006
5	0xbe8b2e55	-0.27183786
6	0xbd53e63d	-0.051733244
7	0x3ab7937e	0.0014005748
8	0x3eae2f9a	0.34020692
9	0x3e02b894	0.12765723
10	0xbd2a8563	-0.041631114
11	0xbda097ea	-0.07841475
12	0xbcedc174	-0.02902291
13	0xbdd2fc98	-0.10302085
14	0xbca55625	-0.020182678
15	0xbd04d95f	-0.032433864
16	0x3ea882a4	0.3291217
17	0x3de4383f	0.111435406
18	0xbcabe852	-0.020984802
19	0xbd1b675f	-0.03794038
20	0x3cc144c6	0.023592364
21	0xbde9061f	-0.11378121
22	0xbb409dee	-0.0029391008
23	0x3c96494c	0.018345498
24	0x3ee2808c	0.44238698
25	0x3ed31234	0.41224825
26	0xbd84e37f	-0.06488704
27	0xbd8a47be	-0.06751965
28	0x3c452d1d	0.012034682
29	0xbebc573b	-0.36785302
30	0x3c360f62	0.011112066
31	0xbdfad7a8	-0.122481644
32	0x3ec555b0	0.38541937
33	0x3eb07ba9	0.34469345
34	0xbd4c00f4	-0.049805596
35	0x3a8be1ac	0.0010672114
36	0xbce52942	-0.027973775
37	0xbe8f6e62	-0.28013903
38	0x3c0f9c83	0.008765343
39	0xbd20890f	-0.03919321
40	0x3ef84c39	0.48495653
41	0x3eb0b0f6	0.3451001
42	0x3bb94473	0.0056539117
43	0x3d5f0491	0.054447714
44	0x3c89bf00	0.016814709
45	0x3cc38bac	0.023870312
46	0x393f3784	0.0001823586
47	0xbca222e4	-0.019792028
48	0xbd4279b3	-0.047479343
49	0xbe042a6f	-0.12906812
50	0x3c1f787a	0.009733314
51	0xbc39d543	-0.011342349
52	0xc013ffd6	-2.31249
53	0xbfe14973	-1.760054
54	0xbadfeb2b	-0.0017083635
55	0xbc16f37b	-0.009213324
56	0xbd7feca0	-0.062481523
57	0xbd84293b	-0.064531766
58	0xbcd08b9c	-0.025457196
59	0xbc1eeca5	-0.009699975
60	0xbf4d47d8	-0.8018775
61	0xbf220c6d	-0.6330021
62	0x3d4552de	0.04817473
63	0xbbf62d9f	-0.0075127627
64	0xbd95a83f	-0.07307481
65	0xbe4fcd1d	-0.20293088
66	0x3d1ea28c	0.038729236
67	0xbc48ede4	-0.012263749
68	0x403604ba	2.8440385
69	0x400ad0ec	2.1690016
70	0xb9102d1b	-0.00013749713
71	0xbc7c5fc6	-0.015403694
72	0x3e8abd6b	0.2709764
73	0xbf19cbc2	-0.60076535
74	0xbe4005d5	-0.18752225
75	0xbf022f2a	-0.50853217
76	0x3df7f4e5	0.12107257
77	0xc0947a9c	-4.639967
78	0xbe3fe499	-0.18739547
79	0xbef582cb	-0.4795135
80	0x3f418c1a	0.75604403
81	0xbf2eca72	-0.6827766
82	0x3c930812	0.017948184
83	0x3ec01db8	0.37522674
84	0x3f2dd471	0.67902285
85	0xc0a45b9d	-5.1361833
86	0xbc3d925f	-0.011570542
87	0x3ec80e76	0.39073533
88	0x3fb2604a	1.3935635
89	0xbf4b773e	-0.79478824
90	0xbe88c629	-0.26713684
91	0x3f0a8d3f	0.54121774
92	0x3f1730f2	0.5905906
93	0xc07b41f8	-3.9259014
94	0xbe8c42e1	-0.27394775
95	0x3f10e1d7	0.56594604
96	0x3f51f1a5	0.82009345
97	0x3fb710e3	1.4302028
98	0xbde02f5a	-0.109465316
99	0x3e81848f	0.25296447
100	0x3e963c0f	0.29342696
101	0xbf8d1650	-1.1022434
102	0xbe1d2dcc	-0.15349501
103	0x3e9d18c1	0.30682948
104	0x3f9a796b	1.2068304
105	0x3ffef758	1.9919233
106	0x3d1607da	0.03662858
107	0x3ed3b0b3	0.41345748
108	0x3ecf5a20	0.40498447
109	0xbfb90d12	-1.4457114
110	0x3cbfc4a9	0.023409205
111	0x3ed7e702	0.42168432
112	0x3fcaaac5	1.5833365
113	0x4011f134	2.2803469
114	0x3d0d3c07	0.034481075
115	0xbe35cc6a	-0.17753759
116	0x3e2e7bd7	0.17039429
117	0xbf71cd73	-0.94454116
118	0x3d0dc475	0.034611184
119	0xbe4b04cb	-0.19826047
120	0x3f346123	0.7046072
121	0xbf905827	-1.1276902
122	0xbd762bc5	-0.060100336
123	0xbdacddea	-0.08440764
124	0xc015c05b	-2.3398654
125	0x3ea5b276	0.32362717
126	0xbd84fe76	-0.06493847
127	0xbdb74554	-0.0894877
128	0x3f321b09	0.695725
129	0xbf9212db	-1.1412004
130	0xbd68cd02	-0.056836136
131	0x3cf4c9a1	0.0298813
132	0xbf892832	-1.0715392
133	0x3f297994	0.6620114
134	0xbd319dd6	-0.043363415
135	0x3cd319e0	0.025769174
136	0x3f75f313	0.96074027
137	0xbfa092a0	-1.2544746
138	0xbe3ef0c3	-0.18646531
139	0x3d966bcd	0.0734478
140	0x3f8c390e	1.0954912
141	0x3f55942a	0.83429205
142	0xbe3b6b6b	-0.18302695
143	0x3d1e2652	0.038610764
144	0x3e58f36a	0.21186605
145	0x3e093dff	0.13402556
146	0xbd00348f	-0.031300124
147	0xbce65170	-0.028115004
148	0xbd89cfc2	-0.0672908
149	0xbeb871fa	-0.36024457
150	0xbca8f1b6	-0.02062307
151	0x3c5a7f0a	0.013335953
152	0x3e63a433	0.22230606
153	0x3df7d935	0.12101976
154	0xbd5f6270	-0.054537237
155	0x3ca45e0c	0.020064376
156	0x3c8d1202	0.0172205
157	0xbddb7743	-0.10716107
158	0x3c8d8c4b	0.017278811
159	0x3d56b958	0.05242285
160	0x3e744ad3	0.23856668
161	0x3e0a739f	0.13520668
162	0xbcde3020	-0.027122557
163	0xbb7d02af	-0.0038606336
164	0x3c6bc9ba	0.014391357
165	0x3dc30289	0.09521968
166	0x3b5cf19f	0.0033713353
167	0xbd0445d3	-0.032293152
168	0x3f95f919	1.1716644
169	0x3f71c763	0.94444865
170	0xbdc5d3a5	-0.096595086
171	0x3e0dab83	0.13834958
172	0xbda3bdad	-0.07995162
173	0xbe92dd5f	-0.28684518
174	0xbdea1359	-0.114294715
175	0x3e1b067b	0.15139191
176	0x3fd85cb2	1.6903288
177	0x3f729692	0.94761
178	0xbe1b643c	-0.15174955
179	0x3bbe2d84	0.0058037657
180	0xbe86f0e5	-0.26355663
181	0xbfa450e1	-1.2837182
182	0xbdfff831	-0.12498511
183	0x3d9d95b3	0.076945685
184	0x3fcf0e94	1.6176324
185	0x3f8325a5	1.0245863
186	0xbe03d58b	-0.12874429
187	0x3f19c779	0.60069996
188	0xbc41ff5e	-0.011840669
189	0xbff352bb	-1.9009622
190	0xbd8e62f0	-0.069524646
191	0x3f24dfb9	0.64403874
192	0x3efd89ff	0.49519345
193	0x3eb33a27	0.35005304
194	0xbd4688b8	-0.04847023
195	0x3d08e490	0.0334211
196	0x3ddaa5fe	0.10676192
197	0xbeb91b46	-0.3615362
198	0xbc6dc7d2	-0.014512973
199	0x3d003d48	0.031308442
200	0x3eba1ab9	0.36348513
201	0x3eb053b2	0.34438854
202	0xba4fb4b5	-0.0007923351
203	0x3d7999c6	0.060937665
204	0xbbce4ba6	-0.006295639
205	0xbe700b1d	-0.2344174
206	0xbd13a4a9	-0.036045704
207	0xbca7b347	-0.020471228
208	0x3f033bfd	0.5126341
209	0x3eaea378	0.34109092
210	0xbcfd708e	-0.03093746
211	0xbd61e488	-0.055149585
212	0x3d046672	0.032324262
213	0xbe45bdfb	-0.19310753
214	0xbd21b3a4	-0.03947796
215	0xbd35436a	-0.044253744
216	0x3fab3d35	1.3378054
217	0x3f14d602	0.5813905
218	0xbce3e71a	-0.027820159
219	0xbd2917d8	-0.041282505
220	0xbd8cca61	-0.06874538
221	0xbe8f5e69	-0.28001717
222	0xbd9a0023	-0.07519557
223	0xbcb7fb98	-0.022458836
224	0x3f82eef1	1.0229169
225	0x3f1d9454	0.61554456
226	0xbd7a5429	-0.061115418
227	0x3dcced48	0.10006195
228	0xbc83f8ec	-0.016109906
229	0xbe8f3c21	-0.27975562
230	0xbdadd2c9	-0.0848747
231	0x3d385f97	0.045013037
232	0x3f8f8231	1.1211606
233	0x3f1c6515	0.6109174
234	0xbc952b55	-0.018209139
235	0x3e341064	0.17584378
236	0x3e195788	0.14974797
237	0xbef3721d	-0.47548
238	0xbd0d3606	-0.03447535
239	0x3e3f4b9c	0.18681186
240	0x3f35775a	0.7088524
241	0x3f262c1a	0.64911044
242	0x3c1d29a6	0.009592449
243	0x3cdba0b8	0.026810035
244	0x3e098b0f	0.13431953
245	0xbf826095	-1.0185724
246	0xbd6fb355	-0.058520634
247	0xbcb6aa61	-0.02229804
248	0x3f2de60d	0.67929155
249	0x3f1ed5fa	0.6204525
250	0xbc82c35c	-0.015962295
251	0xbe9c2236	-0.3049485
252	0xbdc2ebee	-0.09517656
253	0xbfa40550	-1.2814121
254	0x3cc56b90	0.024099141
255	0xbeb1168c	-0.34587514

fcs1.bias f4 [512]
0	0xbea9e882	-0.33185202
1	0xbf152c5a	-0.582708
2	0x3f9ade80	1.2099152
3	0xbff237c0	-1.8923264
4	0xbf9788b1	-1.183859
5	0x3f7a1b36	0.9769777
6	0xbee5c023	-0.4487315
7	0xbfb92f74	-1.4467607
8	0xbf143750	-0.578969
9	0xbf49bf46	-0.78807485
10	0xbf739658	-0.9515128
11	0xbf895cc1	-1.0731431
12	0xc0436fd6	-3.053701
13	0xbda0d6d6	-0.07853477
14	0x3f2e29d7	0.6803259
15	0xbfab6ff4	-1.339354
16	0xbf6bdc39	-0.9213291
17	0xbf82a7be	-1.0207441
18	0xbf8d4437	-1.1036443
19	0x407a60fc	3.9121695
20	0xbe9f6f80	-0.31139755
21	0xbef6111e	-0.48059934
22	0x3fcb8ae2	1.5901759
23	0xbf10d306	-0.56571996
24	0xbf19256d	-0.5982273
25	0x3ddd11ff	0.10794448
26	0xbef69ac3	-0.4816495
27	0xbe71f1c9	-0.2362739
28	0xbfd9852a	-1.6993763
29	0xbdca4770	-0.09876907
30	0xbf25b587	-0.64730114
31	0xc0369507	-2.852846
32	0xbfb066b4	-1.3781343
33	0xbf180759	-0.5938621
34	0xbe0779fc	-0.13230127
35	0xbf651e22	-0.89499104
36	0xbf2bc026	-0.6709007
37	0xbeee43ed	-0.46536198
38	0xbefc2d68	-0.49253392
39	0xbfa33394	-1.2750115
40	0xbebc36d0	-0.3676057
41	0xbf1f956b	-0.6233737
42	0xbf3122e2	-0.6919385
43	0xbfd86d39	-1.6908332
44	0xbfa3ac60	-1.278698
45	0xbf7f3876	-0.9969553
46	0x3d49cd80	0.049268246
47	0xbf8a4a96	-1.0804012
48	0xbe35c090	-0.17749238
49	0x3fa6ab30	1.3020992
50	0x3dd00090	0.10156357
51	0xbea6aaca	-0.32552177
52	0xbf0f2d4b	-0.55928487
53	0x3f7f7e23	0.99801844
54	0xbf0d5a76	-0.5521616
55	0xbeeb862f	-0.4600081
56	0xbf0546d7	-0.5206122
57	0xbf87c418	-1.0606718
58	0x40707087	3.7568681
59	0xbf012387	-0.50444835
60	0x3f495311	0.78642374
61	0xbf14195c	-0.57851195
62	0xbf47d2f7	-0.7805628
63	0xbf41fafd	-0.757736
64	0x3fa35fd3	1.2763618
65	0xbf931d0f	-1.1493243
66	0xbee75483	-0.45181665
67	0xbf19d8ef	-0.6009664
68	0xbfa3f210	-1.2808247
69	0x3f3b4acc	0.73161006
70	0xbf03cd5c	-0.5148523
71	0xbf8538d8	-1.0407972
72	0xbe733870	-0.23751998
73	0xbe835eb3	-0.25658187
74	0xbf3b3911	-0.7313395
75	0xbdeaf771	-0.11472977
76	0xc0692039	-3.6425917
77	0xbffef4b5	-1.9918429
78	0xbecc7591	-0.39933446
79	0xbfeab6de	-1.8337057
80	0x3fb29adf	1.3953513
81	0xbe29a63a	-0.16567317
82	0xbed0dfda	-0.40795785
83	0xbf2455ed	-0.6419361
84	0xbe542b45	-0.20719631
85	0xbf1b73f6	-0.6072382
86	0xbf71da7e	-0.9447402
87	0xbf122fcf	-0.571042
88	0xbedbb425	-0.42910877
89	0xbda7439b	-0.081671916
90	0xc09d2172	-4.9103327
91	0xbeb5c3f5	-0.35501066
92	0xbf3a870b	-0.7286231
93	0xbe6dd869	-0.23227085
94	0xbfd686a3	-1.6759838
95	0xbf28b932	-0.65907586
96	0xbf50324b	-0.8132674
97	0xc0171ea9	-2.3612463
98	0xbe79218a	-0.243292
99	0x4064c2e3	3.574395
100	0xbee5c89d	-0.44879618
101	0xbf3ca88c	-0.7369468
102	0xbec5b20f	-0.3861241
103	0xbecd934d	-0.40151444
104	0xc0898620	-4.2976227
105	0xbe547f44	-0.20751673
106	0xbff0273c	-1.8761973
107	0xc03219e1	-2.7828295
108	0xbe3e9c20	-0.18614244
109	0xbf0f7ce5	-0.5604995
110	0x3db4a39a	0.08820267
111	0xc098a172	-4.7697077
112	0xbea1d98c	-0.31611288
113	0x402b1f13	2.6737716
114	0xbf0d05f1	-0.5508719
115	0xbf8f069f	-1.1173896
116	0xbf0fc4c1	-0.561596
117	0xbdc056b0	-0.09391534
118	0xbfdc4172	-1.7207472
119	0xbf397655	-0.72446185
120	0xbf1f83ba	-0.62310374
121	0xbf0aecca	-0.5426756
122	0xbee0e2d5	-0.4392306
123	0xbe8d85a7	-0.2764103
124	0xbf59ead1	-0.85123926
125	0xbf13b9c3	-0.57705325
126	0xbf305279	-0.68875843
127	0xbf7ae7ab	-0.9800975
128	0xbf30eb94	-0.69109464
129	0xbf84c8fd	-1.0373837
130	0xbfb54848	-1.4162683
131	0xbeac0a30	-0.33601522
132	0xbef6d40d	-0.48208657
133	0xbf87ff5f	-1.0624808
134	0xbf61a5b8	-0.8814349
135	0xbe846b42	-0.2586308
136	0xbf3a88ca	-0.72864974
137	0xbf303b1f	-0.6884021
138	0x3f1e9807	0.61950725
139	0xbfbadba0	-1.4598274
140	0xbfc8bc79	-1.5682517
141	0xbecc624c	-0.39918745
142	0xbefb3731	-0.49065545
143	0xbf200b2c	-0.62517047
144	0x3d8eebc5	0.06978563
145	0xbf31da02	-0.6947328
146	0xbe2d6112	-0.1693156
147	0xbf471049	-0.77759224
148	0xbf86cb17	-1.0530728
149	0xbf561235	-0.8362153
150	0xbef5b894	-0.47992384
151	0xbf06e9fa	-0.5270077
152	0xbe829953	-0.25507602
153	0xc05444d2	-3.3167005
154	0xbf2370af	-0.63843817
155	0x3f2682d6	0.6504339
156	0xc01cce7e	-2.4501033
157	0xbebebec8	-0.3725493
158	0xbeb4bcc0	-0.35300255
159	0xbe3fcfaa	-0.18731561
160	0xbf89e33d	-1.0772473
161	0xbe33e985	-0.1756955
162	0xbf9296f0	-1.1452312
163	0xbf885c5e	-1.0653188
164	0xbe96fe99	-0.29491118
165	0xbfb9401d	-1.4472691
166	0xbf9d25c6	-1.2277153
167	0xbf8044b6	-1.0020969
168	0xbe380ec4	-0.17974383
169	0xbef15525	-0.47135273
170	0xbee6c3c7	-0.4507124
171	0xc05fc2ce	-3.496265
172	0xbed41de7	-0.41429064
173	0xc0843c7d	-4.132384
174	0xbf06f36c	-0.5271518
175	0xbe45bf55	-0.19311269
176	0xc076025e	-3.8438945
177	0xbea6a9a0	-0.3255129
178	0xbee2e5f4	-0.44316065
179	0xbfab27f7	-1.3371571
180	0xbeae91df	-0.34095666
181	0xbe98fd78	-0.2988088
182	0xbe952474	-0.29129374
183	0xbfa492c3	-1.2857288
184	0xbe02d1af	-0.127753
185	0xc00da1e3	-2.2130058
186	0xc0007618	-2.0072079
187	0xbd9561e7	-0.07294064
188	0xbe8e4c0d	-0.27792397
189	0xbfa8d891	-1.3191091
190	0xbf54d810	-0.83142185
191	0xc00718c2	-2.110886
192	0xbe65d92b	-0.22446124
193	0xbf074dad	-0.528529
194	0xbf9d3c5f	-1.2284049
195	0xbdfefe26	-0.12450819
196	0xbfb564f4	-1.4171433
197	0xbfc2b7e4	-1.5212369
198	0xbf01f009	-0.5075689
199	0xbf022ff2	-0.5085441
200	0x3f8cfa9c	1.101398
201	0xbed208bf	-0.41022298
202	0xbe7614b6	-0.24031338
203	0xbf1f3861	-0.621954
204	0xbebd986b	-0.37030348
205	0xbfd53ad7	-1.6658581
206	0xbf10d551	-0.56575495
207	0xbebb24c9	-0.36551502
208	0xbea89faf	-0.3293433
209	0xbe635b22	-0.22202733
210	0xbfbfa2f1	-1.4971601
211	0xbef4dea7	-0.4782612
212	0xbf1ca59b	-0.61190194
213	0xbef14bcd	-0.47128144
214	0xbfab0150	-1.3359776
215	0xbe7ab31f	-0.24482392
216	0xbf6a1b45	-0.9144786
217	0x40168a00	2.3521729
218	0xbf9b3ff6	-1.2128894
219	0xbeb31a94	-0.34981215
220	0xbe9e578a	-0.30926162
221	0xbfcf5a5b	-1.6199449
222	0x3e12b5b5	0.14327128
223	0xbeb8f697	-0.36125633
224	0xbfb6d963	-1.4285091
225	0xbf61c280	-0.8818741
226	0xbf30ce3b	-0.6906468
227	0xbf8bfd6a	-1.0936711
228	0xbed768d0	-0.42072153
229	0xc024246c	-2.564723
230	0xbfc4c4bb	-1.5372537
231	0xbf2ed552	-0.6829425
232	0xbf62ce9d	-0.88596517
233	0xbeb4fd53	-0.3534952
234	0x3faa456b	1.3302435
235	0xbffa67a8	-1.9562883
236	0xbea404aa	-0.32034808
237	0xbead91d8	-0.33900332
238	0xbeabe0f0	-0.3357005
239	0xc0097c10	-2.1481972
240	0xc0076790	-2.115696
241	0xc001cfde	-2.0283122
242	0xbeeae306	-0.4587633
243	0xbfae54fe	-1.3619688
244	0xbf76d01f	-0.9641132
245	0xbed4ebc8	-0.41586137
246	0x3ee1ff24	0.4413997
247	0xc00e995c	-2.2281103
248	0xbece2497	-0.4026229
249	0xbf54a114	-0.83058286
250	0xbfa22376	-1.2667072
251	0xbf3954e3	-0.7239515
252	0xbf8f44c9	-1.1192867
253	0xbf27bd66	-0.65523374
254	0xbfe18b38	-1.7620611
255	0xbfbfe9ef	-1.4993266

fc2.weight f4 [256, 514]
0	0xbd3d2a6c	-0.046183035
1	0xbd455970	-0.048180997
2	0xbd4a6ecd	-0.049422074
3	0x3d31196d	0.04323714
4	0xbc3957bc	-0.011312421
5	0xbcdd7b27	-0.027036263
6	0xbd645252	-0.05574257
7	0xbd08300e	-0.033248954
8	0xbbae1898	-0.0053129904
9	0x3cebced2	0.028785143
10	0x3d2a9c6e	0.04165309
11	0x3d4d0acd	0.05005913
12	0xbd16b8c9	-0.03679732
13	0xbc41c61c	-0.011827018
14	0xbc27d908	-0.010244615
15	0x3d1e9d4a	0.03872422
16	0x3cafa2b3	0.021439886
17	0xbd18404f	-0.037170704
18	0xbd89b06f	-0.06723105
19	0xbd8d4135	-0.06897203
20	0xbd6c1ba9	-0.057643566
21	0x3d6b37ce	0.057426266
22	0xbd671232	-0.056413837
23	0x3d225c2c	0.039638683
24	0x3cffddba	0.031233657
25	0x3c876646	0.01652826
26	0xbd17371d	-0.036917794
27	0xbd993160	-0.07480121
28	0xbce6c4ea	-0.028170068
29	0xbcf0caa3	-0.0293935
30	0xbcf85f3f	-0.030318854
31	0xbdb4b468	-0.08823472
32	0xbc9aa549	-0.018877642
33	0xbc13fa12	-0.009031789
34	0x3d44ab4c	0.048014924
35	0x3be6589a	0.007029605
36	0xbc02d808	-0.007986076
37	0xbd0a9a12	-0.03383834
38	0xbd314765	-0.043280978
39	0xbc785788	-0.015157588
40	0xbd5b611b	-0.053559404
41	0x3c185781	0.009298206
42	0xbcdf2448	-0.02723898
43	0x3bb040c5	0.005378815
44	0xbd4bd873	-0.04976697
45	0x3cf32ee1	0.02968544
46	0xbcdb33d7	-0.026758118
47	0xbd6725da	-0.056432582
48	0x3ca91da2	0.020644013
49	0xbd734581	-0.059392456
50	0xbb62a39c	-0.0034582382
51	0xbc756cc4	-0.014979545
52	0x3cf00889	0.029300945
53	0xbcf4a60a	-0.02986433
54	0x3ba472f4	0.0050185863
55	0xbd99ec18	-0.075157344
56	0xbc3c3580	-0.011487365
57	0xbd05abee	-0.032634668
58	0xbdadd0f8	-0.08487123
59	0x3d354bb7	0.04426166
60	0xbc428bf6	-0.01187419
61	0xbd71a470	-0.05899471
62	0xbd237d45	-0.03991439
63	0xbd1b7bab	-0.037959736
64	0x3c2affb7	0.010436944
65	0x3cb23e02	0.021758083
66	0x3c9d106f	0.019172875
67	0xbd617a81	-0.05504847
68	0xbca9bc84	-0.020719774
69	0x3d03b785	0.03215744
70	0xbc4d86e1	-0.012544365
71	0x3d340c52	0.043957062
72	0xbdb049bc	-0.08607814
73	0x3ae2941c	0.0017286572
74	0xbd6fd670	-0.058554113
75	0xbc7fdf9a	-0.015617276
76	0xbdc875ac	-0.09788069
77	0xbd0515ff	-0.03249168
78	0xbc8540cd	-0.016266251
79	0xbde59993	-0.112109326
80	0xbc187f78	-0.009307735
81	0xb9cb011e	-0.0003872001
82	0xbcd4043a	-0.025880922
83	0xbd8fa05c	-0.07013008
84	0xbcafb5ae	-0.021448936
85	0x3d005489	0.03133062
86	0xbd09c297	-0.03363284
87	0xbd9ed6cd	-0.07755814
88	0xbd02aa3a	-0.031900622
89	0xbd1d0003	-0.03833009
90	0xbcbe3228	-0.023217276
91	0xbd5f67dd	-0.05454241
92	0xbd870983	-0.06593611
93	0x3d062ff7	0.032760587
94	0x3b3bb980	0.0028644502
95	0x3c7fd415	0.015614529
96	0x3d855ce8	0.06511861
97	0xbd871863	-0.06596448
98	0xbd595d4b	-0.053067487
99	0xbdae21d5	-0.08502547
100	0xbd81e527	-0.063425355
101	0xbc8d08fe	-0.017216202
102	0x3d284cb8	0.04108879
103	0x3af72d08	0.0018858025
104	0xbd9a454c	-0.075327486
105	0xbd25b3b4	-0.04045458
106	0xbc6c4bb7	-0.014422349
107	0xbdc7e70f	-0.09760868
108	0x3d787b6f	0.06066459
109	0xbc92514d	-0.017861033
110	0xbda7d66d	-0.08195195
111	0x3dba75c9	0.09104497
112	0xbca2ba85	-0.01986433
113	0xbdbcecf6	-0.09224884
114	0x3d2e6f52	0.042586632
115	0x3d440d2b	0.04786412
116	0xbd4888a4	-0.048958436
117	0xbe1d2e03	-0.15349583
118	0x3d27af55	0.040938694
119	0x3d31e161	0.04342783
120	0x3be0a85c	0.0068560075
121	0xbd57f958	-0.052728027
122	0xbd016687	-0.03159192
123	0xbd50fea4	-0.051024094
124	0xbc510d15	-0.012759467
125	0x3cb24cfc	0.021765225
126	0x3c94b7f1	0.018154116
127	0xbd5e97f7	-0.054344144
128	0x3d0df546	0.03465774
129	0xbcb24a63	-0.021763986
130	0xbd556b01	-0.052104
131	0xbbdbf800	-0.0067129135
132	0xbd195c3c	-0.037441477
133	0x3d3ff8e9	0.04686824
134	0xbcd3679d	-0.025806243
135	0xbd2b23a2	-0.04178203
136	0xba7c49ba	-0.0009624023
137	0xbd62a97b	-0.05533741
138	0xbbf97f1c	-0.0076140296
139	0xbdca7da4	-0.09887245
140	0xbc606e77	-0.013698212
141	0xbcd232f1	-0.025659056
142	0x3d2392ef	0.03993505
143	0x3d2837d2	0.04106886
144	0x3d0151b3	0.031572055
145	0x3d5e7e26	0.054319523
146	0xbc8beb9f	-0.017080126
147	0xbd5d4e40	-0.054029703
148	0x3d5b5f06	0.05355742
149	0x3d4d2131	0.050080482
150	0x3c8d83a2	0.017274681
151	0x3c1236f1	0.008924232
152	0xbbd164a5	-0.0063901716
153	0xbcaac305	-0.020844946
154	0xbc40fded	-0.011779291
155	0xbc915e20	-0.017745078
156	0xbd9fc0e3	-0.07800462
157	0xba09b448	-0.0005252999
158	0xbd30e7c6	-0.043189786
159	0xbce5879c	-0.028018765
160	0x3c6b85bd	0.014375147
161	0xbceea197	-0.029129786
162	0xbcfc2b06	-0.030782234
163	0x3ce00ec2	0.027350787
164	0x3cfe79b3	0.03106389
165	0x3cdfb62a	0.027308542
166	0x3d48830c	0.0489531
167	0xbc46b590	-0.012128249
168	0x3c18d2a5	0.009327565
169	0x3c4a8dcb	0.012362908
170	0x3d1c6319	0.038180444
171	0x3cc88792	0.024478707
172	0xbd360f7a	-0.044448353
173	0xbb6c525c	-0.0036059832
174	0xbcc3b8dc	-0.023891859
175	0xbc43d91b	-0.011953617
176	0xbdda843e	-0.106697544
177	0xbd0eda67	-0.034876253
178	0x3ceddf25	0.029037068
179	0xbb33892a	-0.0027394989
180	0xbc9fa088	-0.019485727
181	0xbd0840d4	-0.03326495
182	0xbcc0749a	-0.0234931
183	0xbcd0a8b4	-0.025471069
184	0xbd860472	-0.065438166
185	0x3cd05b46	0.025434148
186	0x3bf1b571	0.007376366
187	0xbcdf5afe	-0.027265068
188	0x3b437e4e	0.0029829922
189	0xbca19545	-0.019724498
190	0x3cadc6fd	0.02121305
191	0xbca336db	-0.019923618
192	0xbd884a12	-0.06654753
193	0xbca47ca0	-0.020078957
194	0x3d4d0754	0.050055817
195	0x3bb91fbe	0.005649536
196	0xbd4c5f22	-0.049895413
197	0xbd466b6c	-0.04844229
198	0x3cc8f17e	0.024529215
199	0xbc8d0034	-0.01721201
200	0xbc80e6d9	-0.015735077
201	0x3cfb1a6d	0.03065225
202	0x3d1f3be3	0.03887547
203	0x3d6a318c	0.057176158
204	0x3caa5e19	0.020796822
205	0x3c6de911	0.014520899
206	0xbd7eb115	-0.062180597
207	0x3bb6b244	0.00557545
208	0xbd739e88	-0.05947736
209	0xbb513e54	-0.003192802
210	0xbdb1e655	-0.086865105
211	0xbcd8b8bf	-0.026455281
212	0x3d31cfd7	0.043411102
213	0x3c9e8048	0.019348279
214	0xbc03da7e	-0.008047698
215	0xbd89b8c5	-0.06724695
216	0xbd1d2104	-0.038361564
217	0xbd11e9b7	-0.03562328
218	0xbd3456cc	-0.04402809
219	0xbc039406	-0.008030897
220	0xbd654d21	-0.05598176
221	0xbc382a6f	-0.011240586
222	0xbd2539f2	-0.040338464
223	0xbd7489e3	-0.05970181
224	0xbdb577ca	-0.088607386
225	0xbcd496eb	-0.02595087
226	0x398202d2	0.00024797634
227	0xbc8953fe	-0.016763683
228	0x3d1875d2	0.037221737
229	0x3ca68e78	0.020331606
230	0xbdc53187	-0.09628587
231	0x3d3467d8	0.044044346
232	0xbda8efbd	-0.082488514
233	0xbd6ce48d	-0.05783515
234	0xbdafc133	-0.08581772
235	0xbca1430f	-0.019685296
236	0x3caa3660	0.020777881
237	0x3d390a95	0.045176107
238	0xbc8d8b5e	-0.01727837
239	0xbd3a3ba0	-0.04546702
240	0xbd627d09	-0.055295024
241	0xbd79e453	-0.061008763
242	0xbce72dfe	-0.028220173
243	0xbc6514c6	-0.013982004
244	0xbd8b6105	-0.068056144
245	0xb9acb4bd	-0.00032941057
246	0xbda6ae0f	-0.08138668
247	0x3bc83a16	0.00611044
248	0xbd92d068	-0.071686566
249	0x3cbeabb4	0.023275234
250	0x3d2dc5d6	0.042425
251	0xbc3af96e	-0.011412008
252	0x3bb0c739	0.005394843
253	0xbcbe93f4	-0.023263909
254	0xbceb6eff	-0.02873945
255	0x3cdca250	0.026932865

fc2.bias f4 [256]
0	0xbdd2cea9	-0.102933235
1	0xbddfdedf	-0.10931181
2	0xbdb9b605	-0.090679206
3	0xbdd4e600	-0.103954315
4	0xbe430d90	-0.19048142
5	0xbd1d9bc8	-0.038478643
6	0x3f2a390f	0.66493315
7	0xbc427fc3	-0.011871281
8	0xbd9f55a5	-0.07780007
9	0xbda1843c	-0.0788655
10	0x3f2131b4	0.62966466
11	0xbe330762	-0.17483285
12	0xbdf56236	-0.11981623
13	0xbd9e92e0	-0.07742858
14	0x3c2180fb	0.0098574115
15	0xbd02c01b	-0.031921487
16	0xbdb03b40	-0.08605051
17	0xbd83bed3	-0.06432881
18	0xbdbfb5b3	-0.09360828
19	0xbe1a8eb6	-0.15093502
20	0xbde73e16	-0.11291139
21	0xbd98f62f	-0.07468831
22	0xbdeee08a	-0.11663921
23	0xbdedcb7c	-0.11611077
24	0xbddde67a	-0.108349755
25	0xbe8add85	-0.2712213
26	0xbe1f8500	-0.15578079
27	0xbda25aef	-0.079275005
28	0xbde44f6b	-0.1114796
29	0xbe0889bf	-0.13333796
30	0xbdbcb794	-0.09214702
31	0xbd5fde19	-0.05465517
32	0xbe3ce519	-0.18446769
33	0xbd619162	-0.05507029
34	0xbe7c7bb6	-0.24656567
35	0x3f9498ed	1.1609169
36	0xbdc2dc24	-0.09514645
37	0x3ec01d1b	0.37522206
38	0xbd7aae0f	-0.06120115
39	0xbdb6bbcd	-0.08922539
40	0xbe27ed6f	-0.16399167
41	0xbd3a3050	-0.04545623
42	0xbdcf02ba	-0.10107942
43	0x40e95437	7.29153
44	0xbd7b0bf2	-0.06129069
45	0xbdc8227c	-0.097722024
46	0xbd767192	-0.060166903
47	0xbd3acf42	-0.045607813
48	0xbdd33da9	-0.10314495
49	0xbdf24a0f	-0.11830532
50	0xbdb48c0d	-0.08815775
51	0x3ea636e7	0.32463762
52	0xbdd53b0b	-0.10411652
53	0xbd5f2f19	-0.054488275
54	0xbd97cd01	-0.07412148
55	0xbd646251	-0.055757824
56	0xbde759a3	-0.11296394
57	0xbd613fab	-0.05499236
58	0xbe0bb61d	-0.1364369
59	0xbd8af889	-0.067856856
60	0xbed400a0	-0.41406727
61	0xbd4dbede	-0.050230853
62	0xbdee9aaf	-0.11650597
63	0xbd8bbca1	-0.068230875
64	0xbdcf63d3	-0.10126462
65	0xbdb9ff52	-0.090819016
66	0xbe064367	-0.1311165
67	0xbe01e71c	-0.12685817
68	0xbda071ba	-0.078341916
69	0xbe0f7474	-0.14009267
70	0xbe480093	-0.19531469
71	0xbde95908	-0.113939345
72	0xbdfb6b44	-0.12276319
73	0xbe04af75	-0.12957557
74	0x401fa868	2.4946537
75	0xbc8c702a	-0.017143328
76	0xbdae4c33	-0.085106276
77	0x40846ed2	4.138528
78	0xbd65bf7f	-0.056090828
79	0xbdaa4149	-0.083132334
80	0xbd8486b6	-0.064710066
81	0xbdd8a2b9	-0.10577912
82	0xbda3261d	-0.07966254
83	0xbe22bd2c	-0.15892476
84	0xbdda1b1c	-0.10649702
85	0xbd1b09f6	-0.037851296
86	0xbe125ca3	-0.1429315
87	0xbdc9a4ca	-0.09845884
88	0xbdb967b5	-0.09052984
89	0x3fce4102	1.6113589
90	0xbdbe57c9	-0.092940874
91	0xbd763cb0	-0.06011647
92	0xbd0a3ff1	-0.033752386
93	0xbf84c301	-1.037201
94	0xbd317259	-0.04332194
95	0xbe065d72	-0.13121584
96	0xbe0bce62	-0.13652948
97	0x3d587f1e	0.052855603
98	0xbd3c7a73	-0.046015214
99	0x3ff00917	1.8752774
100	0xbd3b4912	-0.045723982
101	0xbd949c03	-0.072563194
102	0xbe28b28b	-0.16474359
103	0xbe3ddeb4	-0.18541986
104	0xbda5f75e	-0.08103822
105	0xbe0e68bc	-0.1390714
106	0xbdb71c35	-0.08940927
107	0xbd4d919d	-0.050187696
108	0xbdb33f66	-0.08752327
109	0xbfb50179	-1.4141074
110	0xbd3a3fe7	-0.0454711
111	0xbda816fc	-0.08207509
112	0xbd202250	-0.039095223
113	0xbdb57048	-0.088593066
114	0xbc09812c	-0.008392613
115	0xbe19f78a	-0.15035835
116	0xbdc0f64a	-0.09421976
117	0xbda61e2c	-0.081112236
118	0xbe2eb548	-0.17061341
119	0xbd8bce2d	-0.06826434
120	0xbdb48fbf	-0.0881648
121	0xbe27e5b7	-0.16396223
122	0xbd79e3d6	-0.061008297
123	0xbe108bd7	-0.14115845
124	0xbda23762	-0.0792072
125	0xbdf9d040	-0.12197924
126	0xbdedbd28	-0.11608344
127	0xbda9e3de	-0.08295415
128	0xbec6d475	-0.38833967
129	0xbddf2f62	-0.108977094
130	0xbcd8bb31	-0.026456447
131	0xbd994af0	-0.07484996
132	0xbdd59ed4	-0.10430685
133	0xbd868733	-0.06568756
134	0xbdc25472	-0.09488763
135	0xbd89125d	-0.06692956
136	0xbd775736	-0.060385905
137	0xbd4bf754	-0.049796417
138	0xbcdc0412	-0.02685741
139	0xbe265c9a	-0.16246262
140	0xbdb8fc21	-0.09032465
141	0x3e769474	0.24080068
142	0xbdc9264d	-0.098217584
143	0xbdb6f993	-0.08934321
144	0xbdc1bbc1	-0.09459639
145	0xbd4f97c6	-0.05068185
146	0xbe77b01b	-0.24188273
147	0xbdde54b8	-0.108560026
148	0xbdc4dd99	-0.09612579
149	0xbcda54a5	-0.02665169
150	0xbca78355	-0.020448366
151	0xbde84959	-0.11342115
152	0xbd329926	-0.043603085
153	0xbdb914a3	-0.09037139
154	0xbe101353	-0.14069872
155	0xbdd40194	-0.103518635
156	0xbd5b244c	-0.053501412
157	0xbd4369b7	-0.04770824
158	0xbdcf1c0f	-0.101127736
159	0xbc78f68f	-0.015195503
160	0xbe5e216e	-0.2169244
161	0xbd8e2ea7	-0.06942492
162	0xbe02b03f	-0.12762545
163	0xbda89ff1	-0.082336314
164	0xbdc3b053	-0.095551156
165	0x3f85fa98	1.04671
166	0x3f039299	0.51395565
167	0xbddb4404	-0.10706332
168	0x3f2e90a0	0.6818943
169	0xbcca2394	-0.024675168
170	0xbecd628f	-0.40114257
171	0xbd8ed0f9	-0.06973452
172	0xbe075267	-0.13215028
173	0xbe03eef4	-0.12884122
174	0xbe31b355	-0.17353566
175	0xbd1d1853	-0.038353276
176	0x3e67ee2a	0.22649446
177	0xbd422208	-0.047395736
178	0xbdf42ed1	-0.11922992
179	0xbd558420	-0.052127957
180	0xbd94da2b	-0.07268175
181	0xbe16e503	-0.14735799
182	0xbdb917f0	-0.09037769
183	0xbdb080f0	-0.08618343
184	0xc0473ab8	-3.112959
185	0x404d87d3	3.211415
186	0xbdd61b5d	-0.10454438
187	0xbf990ccd	-1.1957031
188	0xbdc65e18	-0.09685916
189	0xbda44e75	-0.08022777
190	0xbdf1dee3	-0.118100904
191	0xbddeb979	-0.1087522
192	0xbdf984b0	-0.12183511
193	0xbd98e8b4	-0.074662596
194	0xbd74ccd0	-0.059765637
195	0xbc235e1d	-0.009971169
196	0xbd993729	-0.07481224
197	0xbd7a6352	-0.061129875
198	0xbdf97897	-0.12181204
199	0xbe0e46ed	-0.13894244
200	0xbd5b9156	-0.0536054
201	0xbd94830b	-0.07251557
202	0xbdfe7f4d	-0.124266244
203	0xbdfaa6ce	-0.12238847
204	0x403ae157	2.9200037
205	0xbdb0a92e	-0.086260185
206	0xbccdcd25	-0.025122235
207	0xbde9df12	-0.114195004
208	0x40accc19	5.3999143
209	0x3f9a7699	1.2067443
210	0x40b0798c	5.5148373
211	0xbda83b96	-0.0821449
212	0xbd0f4184	-0.03497459
213	0xbd6f8bfb	-0.058483105
214	0xbe09bdf0	-0.13451362
215	0xbbe4a2b9	-0.006977406
216	0x3e1ca845	0.15298565
217	0xbdec5a8f	-0.1154071
218	0xbe0a90cf	-0.13531803
219	0xbd953f4d	-0.07287464
220	0xbbbdc8cf	-0.0057917605
221	0xbda04ffa	-0.07827754
222	0xbdbcee3a	-0.092251256
223	0xbdbfb46e	-0.09360586
224	0xbc29a745	-0.010354822
225	0xbd747075	-0.05967756
226	0xbe19c418	-0.1501621
227	0x3f2bbc73	0.67084426
228	0xbe009e1e	-0.12560317
229	0xbd24b0c2	-0.040207632
230	0xbe2a3a8b	-0.16623895
231	0x403a8a49	2.9146903
232	0xbdff8832	-0.12477149
233	0xbd8f70f0	-0.07003963
234	0xbdf43a99	-0.11925239
235	0xbcfec2f5	-0.031098822
236	0xbdc08e56	-0.094021484
237	0xbe07160d	-0.13192005
238	0xbdeca7f1	-0.1155547
239	0x3d234452	0.039860077
240	0xbdc6dd75	-0.09710208
241	0xbde45e6b	-0.11150821
242	0xbdd75303	-0.1051388
243	0xbd5825aa	-0.052770294
244	0xbe94c833	-0.2905899
245	0xbcc211f6	-0.023690205
246	0xbd83d5ff	-0.06437301
247	0xbc8d324c	-0.017235897
248	0xbda59540	-0.08085108
249	0xbd1573e6	-0.036487482
250	0xbd865a6b	-0.065602146
251	0xbda3f0d1	-0.080049165
252	0xbd8a8eca	-0.06765516
253	0xbddfad3e	-0.10921715
254	0xbda4b0f2	-0.08041562
255	0x3fb27e41	1.394478

fc3.weight f4 [1, 256]
0	0xbbc6770d	-0.0060566724
1	0x3c9f8f7c	0.019477598
2	0x3c4f102f	0.012638136
3	0x3c85e7e1	0.01634592
4	0xbc4f563c	-0.012654837
5	0x3c1f7a5e	0.009733764
6	0xc07f11d1	-3.9854624
7	0xbc5fc3b9	-0.013657504
8	0x3c81f26c	0.015862666
9	0xbc04c95f	-0.008104651
10	0xc15ba88e	-13.728651
11	0x3cbe604f	0.023239283
12	0xbcf0e116	-0.029404204
13	0x3cf175e9	0.02947517
14	0x3cdcfa67	0.02697487
15	0xbc706dd7	-0.014674625
16	0x3b84b95a	0.004050416
17	0x3ce95d62	0.028486911
18	0xbced7196	-0.028984826
19	0x3c644907	0.013933427
20	0xbc5d5e53	-0.013511258
21	0xbc8ecf20	-0.01743275
22	0xbc1528b6	-0.0091039445
23	0x3ca8afd2	0.02059165
24	0x3cdbdedc	0.026839666
25	0x3e19141f	0.14949082
26	0x3c73bf7a	0.014877195
27	0x3cafe6c2	0.021472339
28	0x3e0ecc2a	0.1394507
29	0x3c39f210	0.011349216
30	0xbf783be1	-0.9696637
31	0xbc305c5d	-0.010764209
32	0xc0225019	-2.5361388
33	0x3cd3ced9	0.025855469
34	0xbd11093c	-0.035409197
35	0xc088da87	-4.2766757
36	0xbc6caad1	-0.014445023
37	0xc086ea54	-4.2161045
38	0x3b22eed7	0.0024861598
39	0x3c4ae5e8	0.0123839155
40	0xbb7d7c93	-0.0038678988
41	0x3c96ac89	0.018392818
42	0x3b6a27aa	0.0035729208
43	0x3fcf471e	1.6193578
44	0xbb6bf405	-0.0036003601
45	0x3b921c70	0.0044589564
46	0xbcba55c8	-0.022745982
47	0xbcbd056e	-0.023073878
48	0xbc366aad	-0.011133832
49	0xbbfc3cdf	-0.007697686
50	0x3ca23269	0.019799428
51	0x408e3c04	4.444826
52	0x3cdf6993	0.027272021
53	0x3cd86c69	0.026418881
54	0x3c92d2bb	0.01792275
55	0xbcf725c5	-0.030169377
56	0xbcc29729	-0.02375372
57	0xbca95b7a	-0.020673502
58	0xbb8680c4	-0.0041047055
59	0x3b380d8f	0.0028084253
60	0xc0920d6f	-4.56414
61	0x3c98f3ca	0.018670935
62	0x3aa31086	0.0012440837
63	0x3cf8abca	0.030355353
64	0xbb5f1ca2	-0.0034044166
65	0x397ddcb3	0.00024210177
66	0x3b200342	0.0024416004
67	0x3bc449f5	0.0059902617
68	0xbc50da49	-0.012747356
69	0x3d00a8d1	0.031410996
70	0xbc9caa11	-0.019124063
71	0x3cca6c7b	0.02470993
72	0xbbc2d884	-0.005946221
73	0xbcc6b69b	-0.024256995
74	0xc0aa9423	-5.330583
75	0x3c855276	0.016274672
76	0xbab6956c	-0.0013930029
77	0x401dd3f6	2.466062
78	0x3ae3eb49	0.0017388846
79	0xbd07d697	-0.033163633
80	0x3d0b85c1	0.034063105
81	0x3cf12c3a	0.029440034
82	0x399f4442	0.000303777
83	0xbcaddea4	-0.021224327
84	0xbc85a2f1	-0.016313048
85	0xbccf3f8c	-0.025298856
86	0xbb6d5785	-0.0036215496
87	0x39928c65	0.00027951892
88	0x3c5a8e15	0.013339539
89	0x3f5ad465	0.8548034
90	0xbc42585c	-0.011861887
91	0xbc1add59	-0.009452187
92	0x3c7d1f4b	0.015449355
93	0xbfe84c5d	-1.8148304
94	0x3c91ff9d	0.017822081
95	0x3c4d2f96	0.012523552
96	0x3c1cd5f2	0.009572493
97	0xbc5dd4dc	-0.013539519
98	0x3c9efda2	0.01940805
99	0xc0223d04	-2.534974
100	0x3c682473	0.014168846
101	0xbceeef85	-0.029166946
102	0xc06914d1	-3.6418955
103	0x3ca74082	0.020416502
104	0xbc9f0118	-0.019409701
105	0x3c9fe9d6	0.019520681
106	0xbbf7e233	-0.007564807
107	0xbc7aa733	-0.015298652
108	0xbc8c1041	-0.017097594
109	0xc0cb996a	-6.3624773
110	0x3c3ff82c	0.011716884
111	0xbceb8784	-0.028751142
112	0xbc7d10db	-0.015445913
113	0x3cde7974	0.027157523
114	0x3c30d09b	0.010791923
115	0xbc98e1cb	-0.018662354
116	0xbb995aa2	-0.0046799937
117	0x3ccc650d	0.024950529
118	0xc092905f	-4.5801234
119	0xbc674415	-0.014115353
120	0x3b8ed697	0.004359077
121	0x3b4df71f	0.0031427813
122	0xbcd14dbb	-0.02554976
123	0xbb4327fc	-0.0029778471
124	0x3b4054e9	0.0029347485
125	0x3abc34ec	0.0014359034
126	0x3bb97342	0.0056594918
127	0x3cde2699	0.027118014
128	0x400ad2f8	2.1691265
129	0xbca68d3b	-0.020331016
130	0x3cddb19c	0.02706223
131	0xbc63c90b	-0.013902913
132	0xbc8f40ff	-0.017487047
133	0xbc981e26	-0.018569063
134	0x3c3120f4	0.010811079
135	0x3cae35b5	0.021265844
136	0xbca2040a	-0.019777317
137	0xbc8c6524	-0.017138071
138	0xbc53bf9e	-0.012924103
139	0x3c5ecf04	0.013599161
140	0x3c2038b5	0.009779145
141	0xbf81f924	-1.0154157
142	0xb9855eb2	-0.0002543829
143	0xbcb3dc58	-0.021955654
144	0x3cacae49	0.0210792
145	0x3cde8a90	0.027165681
146	0xbf11f9f5	-0.5702203
147	0xbcb5312d	-0.022118175
148	0xbba11807	-0.0049161944
149	0xbc11ffd8	-0.008911096
150	0x3cad8e94	0.02118615
151	0x3c014ab6	0.007891348
152	0xbaf34a23	-0.0018561523
153	0x3c75a8e4	0.01499388
154	0x3cc08cf8	0.02350472
155	0xbbe67ffc	-0.0070343
156	0x3bdded66	0.006772685
157	0x3c73cece	0.014880849
158	0x3cd28edf	0.025702892
159	0xbcbd8d63	-0.023138708
160	0xbcf5719f	-0.029961405
161	0x3c78a97e	0.015177129
162	0x3b19d051	0.0023470114
163	0x3b138a8b	0.0022512998
164	0x3c631f56	0.013862452
165	0x3f9f7317	1.2456998
166	0xc01c545e	-2.4426494
167	0xbba1f618	-0.0049426667
168	0x40a83073	5.255914
169	0xbcdbad10	-0.026815921
170	0x3e698368	0.22804034
171	0x3ce91f4d	0.028457308
172	0x3c0493f5	0.008091916
173	0xbcbf5a65	-0.023358533
174	0x3ceae879	0.028675305
175	0x3b6ceede	0.0036153118
176	0x4003b372	2.0578275
177	0x3a2d8858	0.0006619743
178	0x3b5181de	0.0031968276
179	0xbbb2adb0	-0.005452834
180	0x3c3d851a	0.011567378
181	0xbc3567ae	-0.011072082
182	0xbcfb9041	-0.030708434
183	0xbaeb986c	-0.0017974502
184	0xc0a1d6fc	-5.057493
185	0x3f85fae3	1.046719
186	0x3c7cc7c6	0.015428489
187	0xbff9c01e	-1.9511755
188	0xbb6f6e1a	-0.0036534132
189	0xbd2cb16c	-0.04216139
190	0x3b31b44c	0.0027115522
191	0x3be04a4e	0.0068447953
192	0xbc41eb49	-0.0118358815
193	0xbc379876	-0.011205783
194	0xbd01963c	-0.031637415
195	0x40112bd5	2.2683003
196	0xbc698111	-0.014251963
197	0x3c898390	0.016786367
198	0x3bf78172	0.007553273
199	0x3c850a77	0.016240342
200	0x3b0b8767	0.0021290423
201	0xbb971196	-0.0046102507
202	0xbca1923e	-0.019723054
203	0xbc8ea41a	-0.017412234
204	0x3f8cd828	1.1003466
205	0x3c232304	0.009957079
206	0xbcd437ee	-0.025905576
207	0xbab7fb73	-0.001403673
208	0x3fbbc426	1.4669235
209	0x3f96c0c4	1.1777577
210	0x3f60a2df	0.8774852
211	0xbcfb05b6	-0.030642372
212	0xbc917eaf	-0.017760603
213	0xbc15dbee	-0.009146674
214	0xbcceaf67	-0.025230123
215	0xbbaf10aa	-0.0053425627
216	0x3fa01bf1	1.2508527
217	0xbbe8441f	-0.007088199
218	0xbcee43fb	-0.02908515
219	0x3cf05307	0.029336466
220	0xbc517af0	-0.012785658
221	0xbc9ee96e	-0.019398417
222	0xbc096ed7	-0.008388243
223	0x3cf1d70e	0.029521491
224	0xbb24dff0	-0.0025157891
225	0xbc50c2ab	-0.012741725
226	0xbcdca50a	-0.026934166
227	0xc05b6cad	-3.428508
228	0x3c9c60c9	0.01908912
229	0x3c199f1f	0.009376316
230	0xbca5ea69	-0.020253377
231	0x3f9b703a	1.2143624
232	0xbca37e35	-0.019957641
233	0xbcf1d1f9	-0.029519068
234	0x3ca10708	0.019656673
235	0xbc724cbc	-0.014788803
236	0x3a2766d6	0.0006385868
237	0x3c619110	0.013767496
238	0xbd01d5ac	-0.031697914
239	0xbc9e6062	-0.019333068
240	0xbc884ffe	-0.016639706
241	0xba7acb39	-0.00095670257
242	0xbcefcf17	-0.029273553
243	0xbca2bfe3	-0.01986689
244	0xba851d40	-0.0010155812
245	0xbc03bf0c	-0.008041155
246	0x3cf4ef83	0.029899364
247	0x3c67fbfa	0.014159197
248	0x3c8ad6db	0.016948154
249	0xbc8d2e23	-0.017233914
250	0x3b984519	0.004646909
251	0xbcde9da1	-0.027174773
252	0x3b694123	0.0035591803
253	0xbb3be885	-0.0028672528
254	0xbc277452	-0.010220604
255	0xc0401d83	-3.0018013
