checkpoint_critic0.5.pth (torch_old, 580612 bytes, 5 tensors)

fcs1.weight f4 [512, 24]
1.1117646 1.0633574 -0.05558566 -0.33116347 0.27697054 -0.85130805 -0.09689268 -0.35387188
1.0510072 1.148969 -0.08315445 0.18426976 0.31728646 -0.5339011 -0.06170571 0.23025034
0.9369503 1.0449215 -0.030628145 0.06726242 0.46393543 -0.39605173 -0.012582475 0.12354745
-0.007308727 1.2140651 -0.0068926937 0.5045516 -0.29411185 -0.4131711 0.06910676 0.44958872
0.009226722 1.595551 -0.043696344 -0.6772026 -0.32683206 -3.6704047 0.014874434 -0.7174641
0.1549344 0.830111 0.022566523 0.09611529 0.47773618 0.7468999 0.017094817 0.02187928
0.3309058 0.20569499 -0.03023292 0.022038888 -0.06375802 -0.11091264 -0.0416744 0.024168085
0.39759815 0.26310998 -0.060150538 0.0039533665 0.045394454 0.005061528 0.013482305 0.0061405804
0.46146527 0.20371355 0.0008151746 -0.0123628015 0.13496748 -0.30620322 -0.038051654 -0.0155025525
0.1516811 0.101977296 -0.013892695 -0.040567875 -0.006622845 -0.13231575 -0.01376595 -0.011549119
0.19551066 0.09930417 -0.00015125997 -0.0063712248 0.05114586 -0.07612909 -0.029667834 0.009137239
0.24561237 0.01727802 -0.0033492967 -0.0030783885 0.004511491 -0.058832467 -0.0101596415 0.021647772
-0.05570508 0.0013435533 0.019499637 0.0134403715 0.32433873 -0.3792202 -0.024527967 0.06730942
-0.0139438845 0.23658647 0.008261795 0.2536438 -0.04858733 -0.045802794 -0.0049581374 0.26187164
0.09866774 0.5665236 -0.02494387 0.10557269 -1.1343405 0.19319758 -0.024813954 0.08485017
0.08455217 1.9084268 -0.07182205 0.31720984 0.21812259 -0.04676448 -0.076660365 0.31212974
0.24320497 2.013741 -0.13921857 0.17075418 -0.081720166 -0.7388432 -0.12574682 0.1666428
0.45590174 2.5626826 0.1437605 0.2323496 -0.16692336 -2.8498452 0.14719945 0.19750887
0.33912522 0.23485515 -0.036285013 -0.071705796 0.022193499 -0.45545062 -0.025608052 -0.030255126
0.41075644 0.2642569 -0.07292446 0.0034494386 -0.011455431 -0.22918132 -0.0011084144 0.03580845
0.45275038 0.22717643 -0.026177533 0.009922704 -0.013008113 -0.22445828 0.0043161293 -0.01850984
0.19711646 -0.021530865 -0.004176655 0.014365657 -0.0072304076 -0.0473575 -0.021876434 0.027406797
0.24357715 -0.043526664 -0.026510082 -0.087214224 -0.026885029 0.0045278333 0.00025433063 -0.01607327
0.3194909 -0.0264722 -0.041252505 -0.031164728 0.09029192 -0.063483454 0.017967459 0.012173765
0.18977273 0.09963548 -0.03361173 0.021793373 -7.433151e-05 -0.119683094 0.00034557868 0.019680792
0.16821867 0.08238809 0.0070902007 0.05227722 -0.030968515 -0.092326626 -0.028163213 -0.02913203
0.23104554 0.09837875 -0.001285431 -0.009593039 0.02295061 -0.0794189 -0.009825911 0.0013028306
0.49492776 0.10886742 -0.0062446212 -0.08928277 0.020395566 -0.39182398 -0.053619675 -0.07045778
0.48013043 0.1785036 -0.020769326 0.050993007 -0.023777837 -0.26143745 -0.044528596 -0.0040554525
0.489083 0.12840618 -0.017947212 0.008668133 0.12186813 -0.23890279 -0.034213804 0.019636968
0.34145954 0.09549501 0.01607533 -0.012354172 -0.0039206976 -0.29889587 -0.052038252 -0.061461948
0.32456073 0.12102483 -0.0531078 -0.020202093 -0.018444225 -0.29409286 -0.013047456 -0.061130594
00000000: 4d4e 8e3f 181c 883f caad 63bd 428e a9be
00000010: 15cf 8d3e 53ef 59bf ab6f c6bd b22e b5be
00000020: 6787 863f 6b11 933f e14c aabd 36b1 3c3e
00000030: 5f73 a23e bead 08bf 20bf 7cbd bfc6 6b3e
00000040: fadb 6f3f fdbf 853f e0e7 fabc e1c0 893d
00000050: f288 ed3e 4bc7 cabe ba26 4ebc 7206 fd3d
00000060: 0c7e efbb 7c66 9b3f 1bdc e1bb 4b2a 013f
00000070: d495 96be 2a8b d3be d887 8d3d 7e30 e63e
00000080: ad2b 173c 043b cc3f f0fa 32bd 265d 2dbf
00000090: 8856 a7be e9e7 6ac0 e6b3 733c baab 37bf
000000a0: 20a7 1e3e 2882 543f 6edd b83c 18d8 c43d
000000b0: d699 f43e d534 3f3f 6e0a 8c3c 2d3c b33c
000000c0: 7c6c a93e b5a1 523e 07ab f7bc e68a b43c
000000d0: 9193 82bd 2b26 e3bd c7b2 2abd 26fc c53c
000000e0: fc91 cb3e 5ab6 863e 6960 76bd 3e8b 813b
000000f0: 89ef 393d 2ddb a53b e3e4 5c3c ec36 c93b
00000100: 2d45 ec3e 499a 503e 71b1 553a 598d 4abc
00000110: ea34 0a3e abc6 9cbe 0ddc 1bbd 6bfe 7dbc
00000120: 4a52 1b3e 79d9 d03d 309e 63bc 802a 26bd
00000130: 7304 d9bb c87d 07be 948a 61bc 8438 3dbc
00000140: f233 483e fc5f cb3d 8a9b 1eb9 b5c5 d0bb
00000150: 527e 513d 91e9 9bbd f509 f3bc 5cb4 153c
00000160: cf81 7b3e a28a 8d3c e07f 5bbb cabe 49bb
00000170: 21d5 933b 50fa 70bd a074 26bc ab56 b13c
00000180: 032b 64bd 2b1a b03a b4bd 9f3c 0135 5c3c
00000190: ba0f a63e 2629 c2be e0ee c8bc 85d9 893d
000001a0: e474 64bc b943 723e 7b5c 073c 9add 813e
000001b0: 8203 47bd b69b 3bbd df77 a2bb 0a14 863e
000001c0: 5012 ca3d b107 113f 1657 ccbc 7f36 d83d
000001d0: 1232 91bf 96d5 453e a246 cbbc edc5 ad3d
000001e0: b029 ad3d 5447 f43f 7017 93bd 5469 a23e
000001f0: 875b 5f3e 1d8c 3fbd 1c00 9dbd 78cf 9f3e
00000200: b90a 793e 22e1 0040 508f 0ebe 2fda 2e3e
00000210: e75c a7bd d424 3dbf c6c3 00be 69a4 2a3e
00000220: f46b e93e fe02 2440 f435 133e 0eed 6d3e
00000230: f5ed 2abe dd63 36c0 74bb 163e c43f 4a3e
00000240: d2a1 ad3e de7d 703e 989f 14bd 7dda 92bd
00000250: 24cf b53c d330 e9be fac7 d1bc 99d9 f7bc
00000260: ab4e d23e ae4c 873e 6b59 95bd fa0f 623b
00000270: 8faf 3bbc 82ae 6abe 3748 91ba e2ab 123d
00000280: e6ce e73e f0a0 683e 4472 d6bc d692 223c
00000290: fb1f 55bc 64d8 65be 516e 8d3b f3a1 97bc
000002a0: e6d8 493e 7f61 b0bc 52dc 88bb ef5d 6b3c
000002b0: 0eed ecbb f0f9 41bd 3536 b3bc 3884 e03c
000002c0: 4a6c 793e 0449 32bd ac2b d9bc 5f9d b2bd
000002d0: fe3d dcbc 385e 943b ae57 8539 17ac 83bc
000002e0: 5094 a33e 3adc d8bc 63f8 28bd 2c4d ffbc
000002f0: f8ea b83d 9d03 82bd 7e30 933c 7974 473c
00000300: c853 423e b00d cc3d 74ac 09bd 0488 b23c
00000310: 6de2 9bb8 691c f5bd c92e b539 9d39 a13c
00000320: 8441 2c3e 16bb a83d ea54 e83b a320 563d
00000330: afb1 fdbc be15 bdbd 8ab6 e6bc 4ca6 eebc
00000340: 3497 6c3e cc7a c93d e87b a8ba 1f2c 1dbc
00000350: eb02 bc3c 60a6 a2bd dcfc 20bc bec3 aa3a
00000360: 2c67 fd3e e2f5 de3d ae9f ccbb e3d9 b6bd
00000370: 9a14 a73c 279d c8be 4ea0 5bbd 2b4c 90bd
00000380: a8d3 f53e a6c9 363e 6f24 aabc 0bde 503d
00000390: bdc9 c2bc 21db 85be 9e63 36bd 9ae3 84bb
000003a0: 1669 fa3e e97c 033e 0806 93bc c904 0e3c
000003b0: 0096 f93d efa2 74be c623 0cbd b5dd a03c
000003c0: c9d3 ae3e e392 c33d 69b0 833c 2769 4abc
000003d0: 3279 80bb e108 99be 1026 55bd 86bf 7bbd
000003e0: d32c a63e dedb f73d 9187 59bd dc7e a5bc
000003f0: 5818 97bc 5793 96be ffc4 55bc 1364 7abd

fcs1.bias f4 [512]
-0.82222646 -0.018888175 -0.38836545 -0.30753118 -2.5990887 0.2054373 -0.50663465 0.04087018
-0.21934897 -0.4397347 -0.4854723 -1.5738537 -0.31797177 -1.0493134 -2.423722 -0.4330094
-1.5628802 -1.0179979 -1.1056347 -0.45884013 -0.7153345 -0.8118931 1.4214582 -0.3302681
-0.5209094 1.1190381 1.666028 -1.8606164 -1.7539811 -0.66360503 -1.0751334 -0.29539907
-0.8098778 -0.7794825 -0.12922478 -0.8103492 -1.1245645 -0.3898185 -1.1332889 -3.2263231
-0.53943855 0.80605465 -2.0558815 -0.6258915 -0.37771833 -0.6981883 -0.44501638 -1.6276182
-0.31188267 1.3214699 -1.5841576 -1.2573835 -0.27426994 -1.9694384 -1.1435939 -0.10871743
-0.061356988 -0.7151042 -1.0852395 1.0646187 -2.1562212 -0.49481913 -0.5636118 -1.2085845
-0.28842703 -0.40499097 -3.0705292 -0.7195621 -0.35625532 -2.2778642 -0.41650242 -1.1418099
-0.42802766 -0.39833298 -0.9387708 -0.71673244 -1.3712912 -0.94152576 -1.5859153 -0.6741401
-0.84539646 -0.46957296 -0.27254856 -1.7853017 -0.75548697 -1.5023286 -1.1445149 -1.3628236
0.11000743 -0.6547377 -1.9880927 -0.5069085 -1.0283545 -2.6759684 -0.5271133 -0.65871876
-2.2288306 -0.4903327 -1.2606299 -0.80259466 -2.1761851 -1.803714 -0.4511797 -0.49476016
-1.2224392 -0.33997232 -0.536517 -0.32493854 -0.20750648 -0.58129144 -0.8426546 -0.80781746
-1.0371127 -0.670814 -1.3546668 -0.4379217 -1.059872 -0.4102456 -0.94298434 -0.8313367
-1.054121 -0.5155802 -1.2161661 -0.28590783 -1.3481295 -0.50091326 -0.48918617 -1.3765634
-0.09623276 -0.40462872 -0.38555804 -0.6330601 -1.1535366 -1.2701459 -0.38057378 -0.95605636
-0.9140338 -0.9747929 -0.2514306 -0.6145669 -0.73360306 -0.7179117 -1.453002 -1.1367333
-1.4397472 -0.5991328 -1.6278396 3.022147 -0.82628775 -1.4328685 -0.8954688 -0.7990236
-0.21829636 -1.7353021 -0.28564328 -1.35537 2.420415 -0.2766159 -0.4770301 -2.5060897
-3.4886317 -0.33747062 -0.71215934 -0.79083455 0.99240816 -1.369226 -1.4706358 -0.018224899
-0.6894692 -1.6162492 -0.6592403 -2.5679553 -0.85702825 -0.5077921 -1.2926434 1.5892024
-0.5228216 -0.98560095 -0.7951526 -0.18088484 -0.97291946 -0.6377912 2.1453454 -0.8226177
-0.77492356 -0.54393435 -0.7004249 -1.6091006 -0.3686216 1.08931 -0.007156406 -0.33724928
-0.4123511 -0.54801685 -2.1989062 -1.0023026 -0.25685266 -0.28095877 -3.2715402 -1.4270501
-1.1794376 -0.1493817 -0.38519812 -1.4186056 -1.1719011 -0.37159508 -0.35954502 -2.4183412
-1.1443896 0.994828 -2.6122825 -1.4281144 -0.5687691 -1.2319986 -1.4958515 -0.3992712
-0.67527634 -0.7072017 -0.43141037 -0.2904997 0.19460243 -0.59855723 -1.0171634 -1.3340869
-0.71270406 -0.9041924 -0.5916497 -0.8193253 -0.5035494 -2.240629 -1.5944401 -0.9698362
-1.0253315 -2.077767 -1.6087049 -0.65551764 -1.277926 0.32268152 -0.41452986 -1.7481863
-0.7951507 -0.95150095 0.43866852 -0.7017072 -0.15987219 -0.49548045 -0.40680975 -1.758885
-0.5979064 -0.99879277 -1.1599557 -0.81673616 -1.4384035 -0.4733134 -0.50280434 -2.6231117
00000000: 6f7d 52bf 60bb 9abc d6d7 c6be ba74 9dbe
00000010: 7857 26c0 285e 523e cfb2 01bf 7d67 273d
00000020: 049d 60be e824 e1be d38f f8be 0a74 c9bf
00000030: 32cd a2be e74f 86bf 431e 1bc0 68b3 ddbe
00000040: 750c c8bf c14d 82bf 7085 8dbf 18ed eabe
00000050: 2920 37bf 3ad8 4fbf 58f2 b53f e718 a9be
00000060: 525a 05bf a43c 8f3f 6840 d53f ae28 eebf
00000070: 7482 e0bf 05e2 29bf f99d 89bf 8c3e 97be
00000080: 2754 4fbf 2a8c 47bf 8053 04be 0c73 4fbf
00000090: bbf1 8fbf 4a96 c7be 9c0f 91bf 147c 4ec0
000000a0: a518 0abf 9959 4e3f 9093 03c0 6d3a 20bf
000000b0: 4c64 c1be 78bc 32bf 30d9 e3be cb55 d0bf
000000c0: 16af 9fbe ed25 a93f adc5 cabf f1f1 a0bf
000000d0: 1c6d 8cbe 8f16 fcbf 4961 92bf 3ea7 debd
000000e0: 7751 7bbd 1211 37bf 21e9 8abf 6d45 883f
000000f0: 87ff 09c0 ef58 fdbe dd48 10bf e6b2 9abf
00000100: b5ac 93be fa5a cfbe 8d83 44c0 3935 38bf
00000110: 1967 b6be 87c8 11c0 ce3f d5be d426 92bf
00000120: 7126 dbbe 4df2 cbbe 4853 70bf c77b 37bf
00000130: 7886 afbf d507 71bf 46ff cabf 7294 2cbf
00000140: e76b 58bf de6b f0be 7c8b 8bbe c484 e4bf
00000150: 9867 41bf 4e4c c0bf 777f 92bf 0171 aebf
00000160: 934b e13d e49c 27bf d279 febf c1c4 01bf
00000170: 1fa1 83bf 1143 2bc0 e6f0 06bf cba1 28bf
00000180: 29a5 0ec0 e30c fbbe 525c a1bf d876 4dbf
00000190: 9e46 0bc0 1ae0 e6bf 0701 e7be 3451 fdbe
000001a0: e378 9cbf da10 aebe 2e59 09bf 585e a6be
000001b0: 947c 54be 84cf 14bf 36b8 57bf 20cd 4ebf
000001c0: 1cc0 84bf 77ba 2bbf b965 adbf 4637 e0be
000001d0: e3a9 87bf b60b d2be 6c67 71bf 7bd2 54bf
000001e0: 70ed 86bf 10fd 03bf 55ab 9bbf 8362 92be
000001f0: 828f acbf da3b 00bf 9c76 fabe 3b33 b0bf
00000200: ae15 c5bd 7f2b cfbe dd67 c5be 3a10 22bf
00000210: 16a7 93bf 2494 a2bf 91da c2be 1cc0 74bf
00000220: 1efe 69bf 078c 79bf 83bb 80be 4254 1dbf
00000230: 69cd 3bbf 10c9 37bf f8fb b9bf 7a80 91bf
00000240: a349 b8bf c460 19bf 0c5d d0bf db6a 4140
00000250: 9887 53bf 3c68 b7bf 713d 65bf d08c 4cbf
00000260: 1589 5fbe 611e debf d63f 92be c47c adbf
00000270: 14e8 1a40 99a0 8dbe 4a3d f4be c663 20c0
00000280: be45 5fc0 f3c8 acbe 1350 36bf 2274 4abf
00000290: 760e 7e3f cc42 afbf cb3d bcbf 624c 95bc
000002a0: 0e81 30bf 41e1 cebf f9c3 28bf 6159 24c0
000002b0: 3466 5bbf aafe 01bf 5775 a5bf fc6a cb3f
000002c0: a3d7 05bf 5850 7cbf 1f8f 4bbf e039 39be
000002d0: 4011 79bf 4946 23bf 574d 0940 1397 52bf
000002e0: 6461 46bf 483f 0bbf 0c4f 33bf 02f7 cdbf
000002f0: f8bb bcbe 836e 8b3f 4980 eabb f0ab acbe
00000300: af1f d3be d54a 0cbf e1ba 0cc0 744b 80bf
00000310: 3182 83be d4d9 8fbe ea60 51c0 94a9 b6bf
00000320: d0f7 96bf 84f7 18be b038 c5be de94 b5bf
00000330: db00 96bf b641 bebe 4916 b8be 1ac6 1ac0
00000340: 5c7b 92bf 0cad 7e3f a32f 27c0 74cc b6bf
00000350: da9a 11bf 21b2 9dbf 1078 bfbf 466d ccbe
00000360: e9de 2cbf 2c0b 35bf d2e1 dcbe 60bc 94be
00000370: dc45 473e 0c3b 19bf 6932 82bf 5cc3 aabf
00000380: c673 36bf 2779 67bf 5b76 17bf 4ebf 51bf
00000390: 9de8 00bf 7766 0fc0 9d16 ccbf 2f47 78bf
000003a0: 103e 83bf 22fa 04c0 0bea cdbf 01d0 27bf
000003b0: 1493 a3bf 8336 a53e 423d d4be 92c4 dfbf
000003c0: ff8e 4bbf 9195 73bf 2999 e03e 15a3 33bf
000003d0: 89b5 23be 9daf fdbe 5e49 d0be 2523 e1bf
000003e0: 6510 19bf e2b0 7fbf 6e79 94bf 9f15 51bf
000003f0: 9b1d b8bf 2256 f2be c9b7 00bf 10e1 27c0

fc2.weight f4 [256, 514]
-0.048476785 -0.016477577 0.04082202 0.042443424 -0.15752941 -0.021808304 -0.054660253 -0.039084915
-0.010224125 0.027778063 0.039213497 0.012813827 -0.0006275933 -0.011066343 -0.0575622 0.03723659
-0.008685122 -0.040897492 -0.028243246 0.0173865 -0.051349588 0.084432356 -0.0912719 0.040253505
0.028970664 0.0062974333 -0.08903431 -0.046825323 -0.04463443 -0.030182129 -0.03349648 -0.039354652
-0.009013116 -0.14154921 0.03611865 0.046151605 0.024702832 -0.03549051 -0.1094291 -0.12864852
-0.055562563 0.0034779946 -0.03041419 0.0031751688 -0.046946753 0.035064045 -0.026151907 -0.08508986
0.015739154 -0.09821919 -0.069305934 -2.0327563e-05 0.024257759 0.026150228 0.0025787293 -0.067142814
-0.014110397 -0.021008067 -0.101646185 -0.04605267 -0.018701937 -0.060866445 -0.037214193 -0.045300882
0.008323345 -0.012007097 0.014597655 -0.08801409 -0.020088967 -0.013077713 -0.07770059 0.05049233
-0.1127048 0.0011596672 -0.021952918 -0.013428692 -0.051650822 -0.033661608 -0.0822975 -0.1007054
-0.098480485 -0.01484049 -0.032143816 -0.2100804 -0.049578615 0.026979495 -0.03537638 -0.06347619
-0.022742711 -0.039612215 -0.07687467 -0.053447917 -0.055136267 0.023085928 -0.021344524 0.014492924
-0.022078888 -0.018636398 -0.058049105 -0.07438513 -0.09020132 -0.018224994 0.040109556 0.001815047
-0.026409985 -0.038547564 0.047691047 -0.014755584 0.058302164 -0.016861133 -0.040874444 0.06521654
-0.014196687 -0.040328063 0.041209385 0.052422866 -0.068353236 -0.080038264 0.033612486 0.040367145
0.0031450451 -0.05261092 0.01897294 -0.059052605 -0.09154766 -0.036595877 0.018785715 -0.14826186
0.078912795 -0.024866413 -0.056064144 -0.018181186 -0.037435524 0.02818085 0.014527005 -0.036411565
0.001584885 -0.0661437 -0.015738012 -0.053729653 -0.014598704 -0.025032267 0.040585425 0.08653525
0.04073065 0.05036839 -0.021913927 -0.029643495 0.051291265 0.017363757 -0.12101623 -0.0046288804
0.060110446 -0.06296973 -0.008724385 -0.014099905 0.044350807 -0.0038558603 -0.04461436 -0.06470643
-0.114125654 -0.007504185 0.036872797 -0.0043724426 0.009285674 -0.055424415 0.034025464 0.00030373785
-0.06363775 -0.0060461927 0.03731025 0.014041621 -0.09116475 0.00046597354 0.023729816 -0.044264425
-0.09377191 -0.0415671 0.02629277 0.02471115 -0.024500493 -0.063070185 -0.04423093 -0.01941587
-0.094936386 0.043272797 -0.022854999 -0.041826833 0.0049231807 -0.16048147 -0.029835133 0.035964895
-0.07410954 -0.050312515 0.06664173 -0.0067866105 -0.038959485 -0.015138756 -0.010890799 -0.014505731
-0.015274938 -0.044394117 0.032583594 0.06507327 0.053604115 0.057951204 -0.05894554 -0.11853367
-0.06224183 -0.0042358954 -0.16609854 -0.027743487 0.018761104 0.006813867 -0.021270003 -0.06676417
-0.041977603 -0.07428279 -0.035474524 -0.0068250736 -0.1588447 -0.0034553816 -0.0609105 -0.054126672
-0.03220126 -0.02010401 -0.0032562525 0.014800927 0.036594763 0.053395767 -0.13634053 -0.0064131725
-0.034144253 -0.03006305 -0.035050023 0.01295245 0.058743887 0.04583018 0.02328314 -0.017575346
-0.09693162 -0.02594325 0.031866197 -0.07483435 -0.005045928 0.00088759017 -0.15634458 -0.053275455
-0.06278292 -0.008403976 0.03684563 -0.012702846 0.06410385 -0.10076401 -0.027795574 0.06935443
00000000: 988f 46bd fcfb 86bc fe34 273d 28d9 2d3d
00000010: 644f 21be 54a7 b2bc 6ee3 5fbd 8117 20bd
00000020: 1783 27bc d28e e33c 559e 203d 16f1 513c
00000030: 1385 24ba 9b4f 35bc 57c6 6bbd 6585 183d
00000040: 0b4c 0ebc 2184 27bd 615e e7bc 226e 8e3c
00000050: f253 52bd dfea ac3d c3ec babd dce0 243d
00000060: e353 ed3c b35a ce3b 9f57 b6bd e9cb 3fbd
00000070: 98d2 36bd 8340 f7bc 9b33 09bd 5832 21bd
00000080: c0ab 13bc 47f2 10be 26f1 133d 7709 3d3d
00000090: 985d ca3c 7f5e 11bd 5d1c e0bd 70bc 03be
000000a0: 9295 63bd 11ef 633b 2e27 f9bc 7e16 503b
000000b0: 3d4b 40bd 519f 0f3d 863c d6bc 9843 aebd
000000c0: 66ef 803c 2527 c9bd 45f0 8dbd 1c85 aab7
000000d0: 35b8 c63c 0139 d63c e6ff 283b 2c82 89bd
000000e0: 4b2f 67bc 1c19 acbc e02b d0bd b9a1 3cbd
000000f0: ce34 99bc 184f 79bd e96d 18bd 6b8d 39bd
00000100: a45e 083c 6ab9 44bc 012b 6f3c bb40 b4bd
00000110: 9e91 a4bc e743 56bc 7d21 9fbd 0cd1 4e3d
00000120: c6d1 e6bd f9ff 973a 9bd6 b3bc 0404 5cbc
00000130: d08f 53bd c1e0 09bd 978b a8bd a23e cebd
00000140: 23b0 c9bd 8725 73bc 3ca9 03bd 511f 57be
00000150: f212 4bbd 1a04 dd3c d3e6 10bd ceff 81bd
00000160: ec4e babc 6b40 22bd 7870 9dbd 34ec 5abd
00000170: 91d6 61bd b31e bd3c b6da aebc bb73 6d3c
00000180: c9de b4bc 5cab 98bc e6c4 6dbd 3b57 98bd
00000190: 78bb b8bd 954c 95bc eb49 243d dfe6 ed3a
000001a0: c159 d8bc 0de4 1dbd b057 433d 68c1 71bc
000001b0: 40ce 6e3d 5c20 8abc f66b 27bd 4090 853d
000001c0: 3999 68bc 0a2f 25bd 2ccb 283d 5cb9 563d
000001d0: c8fc 8bbd 1aeb a3bd 3fad 093d 0558 253d
000001e0: 1a1d 4e3b 8c7e 57bd 246d 9b3c 25e1 71bd
000001f0: 577d bbbd 8fe5 15bd 80e4 993c f5d1 17be
00000200: 089d a13d a6b4 cbbc 84a3 65bd b6f0 94bc
00000210: fe55 19bd 87db e63c ad02 6e3c 4b24 15bd
00000220: eabb cf3a 5976 87bd 01ed 80bc a013 5cbd
00000230: 672f 6fbc 7810 cdbc e73c 263d 6539 b13d
00000240: 2fd5 263d 164f 4e3d d684 b3bc ead6 f2bc
00000250: ca16 523d 703e 8e3c 5bd7 f7bd ddad 97bb
00000260: 5f36 763d 46f6 80bd b9f0 0ebc 4a03 67bc
00000270: 31a9 353d 9ab2 7cbb 8cbd 36bd ce84 84bd
00000280: b6ba e9bd abe5 f5bb ee07 173d b546 8fbb
00000290: f122 183c b604 63bd 495e 0b3d 013f 9f39
000002a0: 8254 82bd 241f c6bb a2d2 183d d40e 663c
000002b0: 96b4 babd e94d f439 0865 c23c 9d4e 35bd
000002c0: 7d0b c0bd 4342 2abd ef63 d73c 0a6f ca3c
000002d0: 42b5 c8bc f12a 81bd 7e2b 35bd 080e 9fbc
000002e0: 026e c2bd d13e 313d 683a bbbc 9d52 2bbd
000002f0: a252 a13b 4155 24be cf68 f4bc ed4f 133d
00000300: bec6 97bd 7f14 4ebd 767b 883d 3762 debb
00000310: fb93 1fbd 8b08 78bc 526f 32bc 72a9 6dbc
00000320: bc43 7abc 9bd6 35bd 6076 053d 2245 853d
00000330: fd8f 5b3d 3e5e 6d3d e170 71bd c8c1 f2bd
00000340: 4af1 7ebd 44cd 8abb bc15 2abe 4f46 e3bc
00000350: e3b0 993c dc46 df3b 6e3e aebc a7bb 88bd
00000360: b5f0 2bbd 9321 98bd bc4d 11bd dea4 dfbb
00000370: 2fa8 22be af73 62bb 4a7d 79bd eeb3 5dbd
00000380: 78e5 03bd 2ab1 a4bc da66 55bb 967f 723c
00000390: 64e4 153d 85b5 5a3d da9c 0bbe 9725 d2bb
000003a0: d8da 0bbd c946 f6bc 9d90 0fbd 8336 543c
000003b0: 6e9d 703d 6db8 3b3d 49bc be3c 2cfa 8fbc
000003c0: 1684 c6bd f086 d4bc 2186 023d c042 99bd
000003d0: 5058 a5bb 2bad 683a cb18 20be 5d37 5abd
000003e0: 5594 80bd d5b0 09bc 71eb 163d 991f 50bc
000003f0: e148 833d 5c5d cebd 8bb3 e3bc b209 8e3d

fc2.bias f4 [256]
-0.12251126 -0.11047842 -0.036169335 1.3041582 -0.09701639 -0.0616151 0.273414 -0.05879274
-0.08197945 -0.10728875 -0.123403974 0.1421437 -0.06888222 -0.07973323 -0.058535427 -0.054120164
-0.121195614 -0.081454664 -0.101340614 -0.06486139 -0.2061454 -0.04424188 -0.11622335 -0.119281426
-0.098194346 -0.11310318 -0.16918291 -0.08389943 -0.047750328 -0.10694594 -0.11139891 -0.07045962
0.4678448 -0.05304056 -0.10130332 -0.15980987 0.38685307 -0.05962872 -0.09351406 -0.073051065
-0.13496485 -0.045355547 0.716292 -0.10861675 0.08369191 -0.06784115 -0.083808795 -0.04641859
-0.124555126 -0.11670992 -0.08656462 -0.10892903 -0.09313537 -0.084791556 -0.04468582 -0.10869156
-0.11199061 -0.079525344 -0.025803389 -0.15983446 -0.16914798 0.501218 -0.05519326 -0.05380567
-0.13809466 -0.13090655 -0.050939146 -0.09572075 -0.07306827 -0.034582663 -0.09927608 -0.14736019
-0.1227174 -0.09001634 -0.057043582 -0.03382752 -0.15267622 -0.11879023 -0.0028432969 -0.08463569
-0.03696499 -0.13665597 -0.104893945 -0.07096298 -0.07290763 -0.090035245 -0.11170562 -0.08510567
-0.07554721 -0.12828247 -0.0752072 -0.054445956 -0.027297819 -0.45754102 1.2805831 -0.08727302
-0.10852316 -0.047955204 -0.047262076 -0.033007726 0.4174394 -0.07549526 -0.07540672 -0.09006867
-0.08372099 -0.14011046 2.0069995 -0.056385018 -0.10785677 -0.15012963 -0.07613516 -0.030755606
-0.10278093 -0.08262659 -0.07766382 -0.11240286 -0.25094223 -0.06549011 -0.112337455 -0.13240635
-0.14814539 -0.09087821 -0.038214147 -0.044113316 -0.050290436 -0.09312987 -0.1441444 -0.11058514
-0.17732117 -0.08451789 -0.09224823 -0.105583146 -0.046946734 -0.04131489 -0.07108724 -0.067905895
-0.059697554 -0.060650557 -0.07095139 -0.101946354 -0.14245746 -0.09116849 -0.13734038 -0.109235935
-0.07471268 -0.06398113 -0.14467964 -0.09201357 -0.09792225 -0.039292354 -0.026800629 -0.12365935
0.0042713657 -0.7974019 -0.14878264 -0.093108684 -0.09033631 -0.08886295 0.10327686 -0.10581357
-0.0758354 -0.05739692 -0.05092384 -0.105207995 -0.072198294 -0.110324435 -0.036680683 -0.096238025
-0.099986844 -0.03665297 -0.08905118 0.8427175 -0.09856844 -0.08766498 -0.12253854 -0.028036883
-0.058501627 -0.12348577 -0.043233838 0.81498724 -0.1210289 -0.10428421 -0.049414832 -0.05728468
-0.049020868 -0.046655487 -0.07249741 -0.08026975 -0.073811345 -0.09442277 -0.11119012 -0.0499228
-0.09978714 -0.069979355 -0.061138317 -0.12666285 -0.08164055 -0.071380794 -0.06261266 -0.060914963
-0.26789343 -0.12222791 -0.08812023 -0.07712271 0.1341452 -0.09797776 -0.02021058 0.48403272
-0.055895045 -0.14405376 -0.0704797 -0.12728782 -0.064284466 -0.09143669 -0.09603951 -0.03137859
-0.05882064 -0.083151095 -0.10585215 -0.06473865 -0.08597612 -0.1092369 -0.13744207 -0.075011306
-0.48115772 -0.011017469 -0.09049447 -0.12820467 -0.14590359 -0.020289155 -0.18996899 -0.13804334
-0.012194735 -0.06917976 -0.063393205 -0.018094212 -0.1109208 -0.13732179 -0.12334377 -0.034852356
-0.05115357 -0.084532045 -0.11553056 -0.05567561 -0.09074007 -0.035619773 -0.1023353 -0.062391832
-0.09706679 -0.2207581 -0.068161316 -0.08908416 -0.07740243 -0.12515785 -0.031724162 -0.06477995
00000000: 2fe7 fabd 8342 e2bd 4c26 14bd a8ee a63f
00000010: 87b0 c6bd 1d60 7cbd ebfc 8b3e a8d0 70bd
00000020: d8e4 a7bd 34ba dbbd 39bb fcbd 1e8e 113e
00000030: 1f12 8dbd 2d4b a3bd d8c2 6fbd 1bad 5dbd
00000040: 6835 f8bd b4d1 a6bd ab8b cfbd 0cd6 84bd
00000050: c817 53be f936 35bd 8206 eebd d249 f4bd
00000060: 1e1a c9bd a4a2 e7bd 493e 2dbe 77d3 abbd
00000070: d995 43bd 7906 dbbd 1d25 e4bd 224d 90bd
00000080: 5b89 ef3e 0f41 59bd 1d78 cfbd 33a5 23be
00000090: 9b11 c63e 3f3d 74bd 4d84 bfbd cc9b 95bd
000000a0: 3a34 0abe bdc6 39bd ea5e 373f 7572 debd
000000b0: aa66 ab3d 4df0 8abd f2a3 abbd 6b21 3ebd
000000c0: c216 ffbd 9c05 efbd cb48 b1bd 2f16 dfbd
000000d0: c2bd bebd 32a7 adbd 7a08 37bd ae99 debd
000000e0: 555b e5bd 2fde a2bd a161 d3bc a5ab 23be
000000f0: 2135 2dbe d34f 003f 5412 62bd 5663 5cbd
00000100: b068 0dbe 5e0c 06be 91a5 50bd 3e09 c4bd
00000110: d1a4 95bd 8da6 0dbd 4251 cbbd 97e5 16be
00000120: 4353 fbbd 7d5a b8bd 88a6 69bd ba8e 0abd
00000130: 2857 1cbe 4b48 f3bd 9b56 3abb 7a55 adbd
00000140: 9a68 17bd 8bef 0bbe a3d2 d6bd 0a55 91bd
00000150: 9850 95bd 6664 b8bd ebc5 e4bd e24b aebd
00000160: 7fb8 9abd 7b5c 03be 3c06 9abd b902 5fbd
00000170: ad9f dfbc d142 eabe 26ea a33f 32bc b2bd
00000180: 6441 debd ad6c 44bd e195 41bd 1c33 07bd
00000190: 9eba d53e 429d 9abd d76e 9abd ec75 b8bd
000001a0: e975 abbd 1e79 0fbe ae72 0040 faf3 66bd
000001b0: 03e4 dcbd 95bb 19be c0ec 9bbd 2ef3 fbbc
000001c0: cf7e d2bd 2138 a9bd 350e 9fbd 7833 e6bd
000001d0: 807b 80be ae1f 86bd 2e11 e6bd 8895 07be
000001e0: 6db3 17be 5b1e babd 7086 1cbd 2ab0 34bd
000001f0: 58fd 4dbd e0ba bebd 979a 13be 767a e2bd
00000200: ae93 35be b717 adbd a4ec bcbd fa3b d8bd
00000210: 384b 40bd cd39 29bd 3096 91bd 3f12 8bbd
00000220: 6c85 74bd b86c 78bd f64e 91bd 40c9 d0bd
00000230: 5ee0 11be 8cb6 babd f5a2 0cbe 17b7 dfbd
00000240: f602 99bd 8a08 83bd e626 14be 9c71 bcbd
00000250: 768b c8bd 05f1 20bd fe8c dbbc 1d41 fdbd
00000260: d0f6 8b3b 8822 4cbf 7a5a 18be c4af bebd
00000270: 3e02 b9bd c7fd b5bd d282 d33d c9b4 d8bd
00000280: 974f 9bbd 0819 6bbd 8495 50bd 4a77 d7bd
00000290: b3dc 93bd c7f1 e1bd 7c3e 16bd 7118 c5bd
000002a0: e7c5 ccbd 6d21 16bd 7760 b6bd 56bc 573f
000002b0: 40de c9bd b289 b3bd 7cf5 fabd 9bad e5bc
000002c0: 679f 6fbd 1be6 fcbd f715 31bd 01a3 503f
000002d0: 00de f7bd f692 d5bd 3567 4abd 57a3 6abd
000002e0: 1bca 48bd d319 3fbd 8679 94bd 7764 a4bd
000002f0: 672a 97bd ba60 c1bd a5b7 e3bd da7b 4cbd
00000300: 335d ccbd 5651 8fbd 2c6c 7abd e8b3 01be
00000310: 2933 a7bd 1830 92bd 113b 80bd f881 79bd
00000320: 5429 89be a052 fabd 6178 b4bd 83f2 9dbd
00000330: 5c5d 093e 90a8 c8bd a990 a5bc 23d3 f73e
00000340: 34f2 64bd d482 13be a957 90bd bd57 02be
00000350: 93a7 83bd 2943 bbbd 5db0 c4bd d686 00bd
00000360: e9ed 70bd 1f4b aabd 03c9 d8bd b395 84bd
00000370: 3f14 b0bd 99b7 dfbd 9dbd 0cbe 879f 99bd
00000380: 4e5a f6be 9d82 34bc 2a55 b9bd 1648 03be
00000390: c067 15be 7135 a6bc 3b87 42be 3c5b 0dbe
000003a0: 6dcc 47bc 1eae 8dbd 4cd4 81bd 503a 94bc
000003b0: 722a e3bd 159e 0cbe a99b fcbd 58c1 0ebd
000003c0: 6886 51bd 231f adbd 499b ecbd 1c0c 64bd
000003d0: eed5 b9bd 0ae6 11bd 2b95 d1bd 948e 7fbd
000003e0: f4ca c6bd 690e 62be 2998 8bbd c271 b6bd
000003f0: 2a85 9ebd 6129 00be 32f1 01bd 5aab 84bd

fc3.weight f4 [1, 256]
0.005896267 -0.014665378 -0.028761888 -0.07904115 -0.028987393 0.018200135 -0.13548076 0.0056653577
0.022155482 -0.0015713833 0.006658893 -0.05428352 -0.0061723986 0.003665741 -0.02254913 -0.013836685
-0.0073002563 -0.013210419 0.02285254 -0.013655565 0.27473333 0.01731685 0.005941863 -0.0034543704
-0.0048990385 -0.0018174668 -0.021184139 0.022799758 -0.00032873912 0.006407543 -0.00462471 -0.026191026
-0.0795482 0.00504742 0.0065156426 0.010474997 0.15523835 -0.01310464 0.014026971 -0.13039306
-0.011279644 0.023900986 0.121456295 0.021952298 -0.13790081 0.0011031015 0.030219344 -0.0015623468
-0.019068224 -0.021387126 0.0033783012 -0.008194127 0.008225816 0.025203405 0.006545495 0.0005611696
-0.015227579 -0.004271475 0.020653618 -0.2905814 -0.19085571 0.08880336 -0.021820217 0.016323978
-0.0036020868 -0.012009632 0.0061218776 -0.01774044 -0.027782058 -0.0057241493 0.015990885 0.0017857671
-0.021308172 0.009100125 -0.011954924 -0.028776484 0.015714029 -0.029623086 0.028544161 0.0012699863
-0.006814418 -0.017328562 -0.014025948 0.002541711 -0.002039438 0.021001253 -0.003723103 -0.0035895007
0.006671677 0.0017699006 0.0010292087 -0.0055366727 0.028596964 -0.6383909 -0.12702993 -0.022596847
-0.012339731 -0.00969534 0.01384904 0.025871973 0.084442995 0.012078811 -0.0126922345 0.013424666
-0.028344028 -0.009434536 -0.09085593 0.007371478 -0.024526546 -0.0034452463 0.03082158 0.017295178
0.0039488305 -0.0077093304 0.014624625 0.023997517 -0.0561618 -0.02239615 0.0010845201 0.0008835663
-0.015329182 0.040752754 0.016588276 -0.024362674 0.0059590917 0.021889878 0.026957577 0.021782054
-0.005272904 -0.0060446123 0.007360101 -5.8854853e-06 0.026617505 -0.0024651326 -0.013291909 -0.0038228754
0.019796332 -0.0060027516 -0.023014467 0.009606095 -0.0141443005 0.008464002 0.032650407 0.01261848
-0.018569838 0.0020886993 0.019973062 0.03090986 0.009103473 -0.009452251 -0.01125937 0.021334592
-0.021480322 -0.1690356 -0.02355056 -0.020751704 -0.002655607 -0.0169168 -0.1275756 -0.026696743
0.0032395325 0.0025299392 0.009353053 0.026874011 -0.028392054 -0.009283379 0.014199171 0.027120462
-0.020178689 -0.029686049 0.004499623 -0.15435712 0.010083786 0.010964026 -0.022558803 0.0001026126
0.01229807 -0.0068261414 0.015831763 -0.14233197 -0.030044662 -0.02341447 -0.002174892 -0.009761076
-0.02875165 -0.0071345903 0.022755258 -0.028113872 0.0009623036 -0.0226296 0.013366104 0.0013206388
-0.01730872 -0.014197397 -0.0071605323 -0.012777465 0.027675899 0.029496834 -0.012125589 -0.0157441
-0.21966292 0.027874533 -0.02748393 0.010393989 -0.054761983 0.012529271 -0.015091906 0.15046552
0.029092252 0.021046087 0.0054361797 -0.013780473 0.027906882 0.028033113 0.029473836 0.0050252117
-0.017486392 -0.011254995 -0.025044248 0.0044387477 -0.023691935 0.016532829 0.013697585 0.010646322
-0.06976686 0.00049685413 0.011396168 0.0057166545 -0.015510501 -0.57039183 0.0312173 0.029910242
-0.122845195 -0.0069881575 -0.028196173 -0.0051686377 -0.00018101113 -0.027252676 -0.020653391 0.025231767
-0.030183747 -0.020342994 -0.011909703 0.0132564055 0.00996677 0.011647879 -0.015936162 0.00557978
-0.020790175 0.7370456 -0.01957069 -0.030886972 0.023277992 0.025606392 -0.019079365 -0.008284091
00000000: 7935 c13b 0e47 70bc 0d9e ebbc 54e0 a1bd
00000010: f876 edbc 7318 953c 78bb 0abe 77a4 b93b
00000020: 6a7f b53c e0f6 cdba d832 da3b 6558 5ebd
00000030: d541 cabb ee3c 703b f4b8 b8bc 43b3 62bc
00000040: fd36 efbb 8370 58bc 4035 bb3c 97bb 5fbc
00000050: d9a9 8c3e 11dc 8d3c f6b3 c23b b862 62bb
00000060: 1d88 a0bb 1138 eeba 5c8a adbc 8fc6 ba3c
00000070: 9e5a acb9 5ef6 d13b e18a 97bb 908e d6bc
00000080: 2bea a2bd d464 a53b 2c81 d53b 529f 2b3c
00000090: cdf6 1e3e d8b4 56bc 61d1 653c c285 05be
000000a0: 42ce 38bc 00cc c33c 14be f83d 4ed5 b33c
000000b0: df35 0dbe f295 903a 8f8e f73c a9c7 ccba
000000c0: f734 9cbc 0e34 afbc 7d66 5d3b a940 06bc
000000d0: 93c5 063c 5f77 ce3c 977b d63b 741b 133a
000000e0: 187d 79bc bbf7 8bbb c731 a93c 16c7 94be
000000f0: ae6f 43be 89de b53d 50c0 b2bc ddb9 853c
00000100: fd10 6cbb 0cc4 44bc 089a c83b 6654 91bc
00000110: 3397 e3bc a591 bbbb 51ff 823c 6710 ea3a
00000120: 7a8e aebc b118 153c 96de 43bc a9bc ebbc
00000130: b5ba 803c 1dac f2bc 72d5 e93c ab75 a63a
00000140: 7b4b dfbb a1f4 8dbc 17cd 65bc d692 263b
00000150: 18a8 05bb d20a ac3c 4eff 73bb d43d 6bbb
00000160: 159e da3b 02fc e73a 83e6 863a fa6c b5bb
00000170: 2e44 ea3c 966d 23bf 2214 02be 061d b9bc
00000180: 952c 4abc 34d9 1ebc 15e7 623c 76f1 d33c
00000190: 73f0 ac3d 35e6 453c 17f3 4fbc 21f3 5b3c
000001a0: bc31 e8bc 5093 1abc ac12 babd 708c f13b
000001b0: e5eb c8bc a4c9 61bb 8a7d fc3c 9eae 8d3c
000001c0: 3165 813b 8d9e fcbb 209c 6f3c 7196 c43c
000001d0: ea09 66bd 2178 b7bc 7526 8e3a 219f 673a
000001e0: 4027 7bbc 5cec 263d 23e4 873c 3b94 c7bc
000001f0: 7c44 c33b 6752 b33c 23d6 dc3c 4770 b23c
00000200: 53c8 acbb e211 c6bb 012d f13b ef7b c5b6
00000210: f40c da3c 108e 21bb 4fc6 59bc 3589 7abb
00000220: eb2b a23c bbb2 c4bb d688 bcbc e262 1d3c
00000230: 7fbd 67bc 99ac 0a3c 6fbc 053d bebd 4e3c
00000240: c61f 98bc 8fe2 083b 8c9e a33c ad36 fd3c
00000250: bc26 153c 9ddd 1abc 3879 38bc e2c5 ae3c
00000260: 80f7 afbc ab17 2dbe 1bed c0bc 7aff a9bc
00000270: b109 2ebb 1a95 8abc 2ea3 02be 21b3 dabc
00000280: 564e 543b 56cd 253b 8c3d 193c e326 dc3c
00000290: 7496 e8bc 5019 18bc a4a3 683c bb2b de3c
000002a0: c74d a5bc 2830 f3bc 9371 933b cb0f 1ebe
000002b0: 7736 253c 75a2 333c 3dcd b8bc b831 d738
000002c0: d87d 493c d3ad dfbb 9db1 813c 79bf 11be
000002d0: 3920 f6bc b4cf bfbc a288 0ebb ecec 1fbc
000002e0: 9588 ebbc 48c9 e9bb 3c69 ba3c 104f e6bc
000002f0: 1a43 7c3a b661 b9bc 81fd 5a3c 4919 ad3a
00000300: 04cb 8dbc 339c 68bc e6a2 eabb 9358 51bc
00000310: 91b8 e23c 58a3 f13c 68aa 46bc c5f9 80bc
00000320: 51ef 60be 2259 e43c fb25 e1bc 8d4b 2a3c
00000330: 1a4e 60bd 9247 4d3c 0b44 77bc a213 1a3e
00000340: e052 ee3c d868 ac3c fb21 b23b 7ec7 61bc
00000350: f99c e43c b3a5 e53c 1d73 f13c 88aa a43b
00000360: 9f3f 8fbc df66 38bc 9829 cdbc ea72 913b
00000370: 9715 c2bc db6f 873c d66b 603c e96d 2e3c
00000380: ede1 8ebd 513f 023a feb6 3a3c c652 bb3b
00000390: c21f 7ebc 3305 12bf 6cbb ff3c 5306 f53c
000003a0: 4396 fbbd eafc e4bb a9fb e6bc ad5d a9bb
000003b0: cecd 3db9 0141 dfbc 4d31 a9bc dab2 ce3c
000003c0: e843 f7bc 5aa6 a6bc ea20 43bc 6531 593c
000003d0: aa4b 233c bfd6 3e3c 8e8c 82bc 96d6 b63b
000003e0: 2850 aabc 05af 3c3f b652 a0bc ad06 fdbc
000003f0: 7db1 be3c 7fc4 d13c 544c 9cbc ffb9 07bc
