checkpoint_actor.pth (torch_old, 579589 bytes, 6 tensors)

fc1.weight f4 [512, 24]
0	0xbb8c566a	-0.0042827623
1	0x3e9fe561	0.3122969
2	0x3b68d35b	0.0035526368
3	0x3c43da9a	0.011953974
4	0xbe88f223	-0.26747236
5	0xbe1ca66d	-0.15297861
6	0x3ad5a43c	0.0016299556
7	0x3d300786	0.042975925
8	0xbc24ca42	-0.010057988
9	0x3ea01aac	0.3127035
10	0x3c7c5e37	0.015403322
11	0x3d374b75	0.044749696
12	0xbd392f8b	-0.045211356
13	0xbe94f41d	-0.29092494
14	0x3d22d054	0.03974946
15	0x3c202dfb	0.009776588
16	0xbd6cc04c	-0.057800576
17	0x3e86ce24	0.26329148
18	0x3cddfb4c	0.027097367
19	0xbd32083d	-0.043464888
20	0x3e42eb06	0.19034967
21	0xbdd42b75	-0.10359851
22	0x3b12de87	0.0022410469
23	0xbd9429b5	-0.072345175
24	0x3da8dac4	0.08244851
25	0x3f0e7545	0.5564769
26	0xbcbd268c	-0.02308967
27	0x3d7d95e1	0.061910514
28	0xbdaf9672	-0.08573617
29	0x3cc89433	0.02448473
30	0x3c39c0dd	0.011337486
31	0xbba82c88	-0.0051322617
32	0x3cc4d68a	0.024028081
33	0x3efc8bc6	0.4932539
34	0xbc3ce2cd	-0.011528683
35	0xbd3835bd	-0.044973124
36	0x3e1d638d	0.15370007
37	0xbc4edb13	-0.012625474
38	0x3c048965	0.008089398
39	0xbdc73f14	-0.09728828
40	0x3d2bec8f	0.041973647
41	0x3eb564b5	0.35428396
42	0xbd44484a	-0.047920503
43	0xbd1b0e89	-0.03785566
44	0x3ecbda18	0.3981483
45	0x3e33c309	0.17554869
46	0x3c5990fb	0.013279195
47	0x3cb05278	0.0215237
48	0x3e914156	0.2837016
49	0xbe12a625	-0.14321192
50	0x3d9f1a0e	0.077686414
51	0x3e0aa65f	0.13540028
52	0x3d87b221	0.06625772
53	0xbd8e9296	-0.06961553
54	0x3d0dc9a1	0.034616116
55	0x3dba372d	0.09092555
56	0x3e4acd88	0.19804966
57	0xbc8a805d	-0.016906912
58	0xbcd03260	-0.025414646
59	0x3d3cd486	0.046101116
60	0x3d7fe51f	0.062474366
61	0xbdc88ba4	-0.09792259
62	0xbc74dc5a	-0.014945114
63	0x3d5c756f	0.05382293
64	0x3de105d4	0.1098744
65	0xbd5b47d4	-0.053535298
66	0xbc9c9e28	-0.019118384
67	0xbd7d18e4	-0.061791316
68	0x3dfb2a8f	0.12263977
69	0xbe3a6c4f	-0.18205379
70	0xbd74e742	-0.059790857
71	0xbcb87dc6	-0.022520911
72	0xbd789195	-0.060685713
73	0xbd8c29b2	-0.0684389
74	0x3d0df69a	0.034659006
75	0x3c5f0539	0.013612085
76	0xbe27fab3	-0.16404228
77	0x3eb685ed	0.35649052
78	0xbd498dda	-0.049207546
79	0x3ce6b020	0.028160155
80	0x3d1c5ce6	0.038174532
81	0xbd4733ac	-0.048633263
82	0x3d3da3ef	0.046298917
83	0x3be16c02	0.0068793306
84	0x3cfcf1b7	0.030876977
85	0x3d09b587	0.033620384
86	0xbc9f0c95	-0.01941518
87	0x3c14ce9a	0.009082461
88	0xbd5cf9cc	-0.053949162
89	0x3b7cf61d	0.0038598843
90	0x3ca1129e	0.019662198
91	0xbc85be74	-0.016326167
92	0x3e496768	0.19668353
93	0xbf039e1f	-0.5141315
94	0x3d4b8225	0.049684662
95	0x3d36cfef	0.044631895
96	0x3e0fc9fc	0.14041895
97	0xbbd43579	-0.006476101
98	0x3c3705f2	0.011170851
99	0xbd1a0738	-0.03760454
100	0x3e9f325d	0.31093112
101	0xbe9516d3	-0.29118976
102	0xbce697ee	-0.028148618
103	0x3c9700a0	0.018432915
104	0x3e08ff78	0.13378704
105	0xbd927dcc	-0.071529
106	0x3c54ebf9	0.012995713
107	0x3bad5a56	0.00529031
108	0x3e24237f	0.16029166
109	0x3ea9ed24	0.33188736
110	0xbc609ef3	-0.013709771
111	0xbd88848c	-0.06665906
112	0x3d58039d	0.05273782
113	0x3c7412c3	0.014897051
114	0xbae3e667	-0.0017387391
115	0xbd2b81c5	-0.041871805
116	0x3e21055b	0.15724699
117	0xbef45b08	-0.477257
118	0xbc8f8ed7	-0.017524166
119	0xbd6593a5	-0.056049008
120	0xbd6b27b8	-0.057410926
121	0xbe509ade	-0.20371577
122	0x3d85836b	0.065192066
123	0x3cdf7ffc	0.027282707
124	0xbe953a55	-0.29146066
125	0x3e3db131	0.18524624
126	0x3cf482d2	0.029847536
127	0xbc4b378c	-0.01240338
128	0xbc37ae2a	-0.011210958
129	0xbe0d515e	-0.1380057
130	0x3d2f55d3	0.042806458
131	0xbd2e60e2	-0.042572863
132	0x3a611d9d	0.00085874816
133	0x3e5c2b4d	0.21500893
134	0x3cdab64a	0.02669825
135	0xbca97658	-0.020686314
136	0xbe08918e	-0.13336775
137	0xbe5c8c9a	-0.2153801
138	0x3cabf9b7	0.020993097
139	0xbba5e31c	-0.005062474
140	0x3e9c254a	0.304972
141	0xbdb353ee	-0.08756243
142	0x3ced679d	0.02898007
143	0xba6e6687	-0.0009094257
144	0x3e04fc13	0.12986784
145	0x3e463063	0.19354396
146	0x3d297382	0.041369922
147	0xbe4a5145	-0.19757564
148	0x3dfea7ea	0.12434371
149	0xbd0e6dc4	-0.03477265
150	0x3ccad282	0.024758581
151	0xbe3f75dd	-0.18697305
152	0x3e5515fd	0.20809169
153	0x3e3df717	0.18551289
154	0x3b5d1daf	0.0033739617
155	0xbd5882a7	-0.052858975
156	0x3e20c2c5	0.15699299
157	0x3bc49a08	0.0059998073
158	0x3c286994	0.010279078
159	0xbd9e2333	-0.077215575
160	0x3e2ceab3	0.16886406
161	0x3e132abc	0.1437177
162	0x3ce8da14	0.0284243
163	0xbdf30028	-0.11865264
164	0x3d844aa2	0.064595476
165	0x3b8370a9	0.004011233
166	0xbc7d249c	-0.015450623
167	0xbdcb96fe	-0.09940909
168	0x3c61eaed	0.013788921
169	0x3ee1b864	0.4408599
170	0x3caf2a46	0.021382462
171	0xbd5efc0d	-0.054439593
172	0xbe0d4176	-0.13794503
173	0xbe2b129e	-0.1670632
174	0x3c6d6966	0.014490461
175	0x3c04b9bd	0.008100924
176	0x3cc89739	0.024486171
177	0x3ee3e007	0.44506857
178	0xbc95b98d	-0.018276954
179	0xbd305a60	-0.04305494
180	0x3de99ccc	0.1140686
181	0xbef76a25	-0.4832317
182	0xbc79e59a	-0.015252495
183	0x3cd3f068	0.02587147
184	0x3d243163	0.04008616
185	0x3eb70620	0.3574686
186	0x3ace4a36	0.0015738669
187	0xbd87fe58	-0.06640309
188	0x3e01e3bb	0.12684529
189	0x3c6dc2cc	0.014511775
190	0x3b276392	0.0025541526
191	0xbd632bbf	-0.05546164
192	0x3e15d76d	0.1463296
193	0x3cef13dd	0.029184276
194	0xbca0ecc1	-0.019644143
195	0x3cecfed5	0.028930107
196	0x3da4cc44	0.08046773
197	0x3ef3e345	0.4763433
198	0xbb376fb3	-0.0027990162
199	0x3d95e80a	0.073196486
200	0x3d92b330	0.071630836
201	0x3c814450	0.015779644
202	0x3afa3eb9	0.0019092179
203	0x3c5ca1d3	0.013466316
204	0x3e38cc61	0.18046714
205	0x3eb87b54	0.36031592
206	0xbd1c7fb8	-0.03820774
207	0xbc3894ad	-0.011265916
208	0x3dea223d	0.11432312
209	0x3affd8ec	0.0019519604
210	0x3c79f461	0.015256018
211	0xbc3effb2	-0.011657642
212	0x3e5109a9	0.20413841
213	0x3de0e37b	0.109808885
214	0xbcf630cd	-0.030052567
215	0xbc388138	-0.011261277
216	0x3df55643	0.11979344
217	0x3edbf542	0.42960554
218	0x3cb6e977	0.022328122
219	0xbd8c9a39	-0.06865353
220	0x3d6819c7	0.05666521
221	0x3da63553	0.081156395
222	0x3cc5c2bb	0.024140706
223	0xbda9ce69	-0.08291323
224	0x3cdaa804	0.026691444
225	0x3e8294b4	0.25504076
226	0x3c09464b	0.008378576
227	0xbd98cf45	-0.074614085
228	0x3d5cc871	0.053902093
229	0x3e5b018a	0.21387306
230	0xbabda3c6	-0.0014468364
231	0xbd4a4bf5	-0.049388845
232	0x3dbf782b	0.09349092
233	0x3e5aedf8	0.2137984
234	0xbc28bf50	-0.010299519
235	0xbd4a3b11	-0.049372736
236	0x3d7e919d	0.062150586
237	0x3e6ae596	0.22939143
238	0xbd5c5165	-0.05378856
239	0xbdccddeb	-0.10003265
240	0xbd803ca6	-0.06261568
241	0xbca53eee	-0.020171609
242	0x3d95b0dd	0.073091246
243	0xbb6adafa	-0.0035836087
244	0x3e80e16e	0.2517199
245	0xbe871d07	-0.26389334
246	0x3c48e23e	0.012260972
247	0xbb8d47af	-0.004311524
248	0xbcaffebb	-0.02148377
249	0xbca9e631	-0.020739647
250	0x3ce4710f	0.027885942
251	0x3def2897	0.11677664
252	0xbca90fc1	-0.020637395
253	0xbcf634c1	-0.030054452
254	0x3b97063b	0.004608897
255	0x3df0620b	0.1173745

fc1.bias f4 [512]
0	0xbcb99898	-0.02265577
1	0xbe3099bf	-0.1724615
2	0xbbda33c7	-0.0066590044
3	0xbd8bb3fb	-0.06821438
4	0xbdc6a177	-0.09698766
5	0x3e2f304b	0.17108266
6	0xbe6245a0	-0.22096872
7	0x3dd7f8e9	0.10545523
8	0x3e224986	0.1584836
9	0xbe18f534	-0.14937288
10	0xbe297f55	-0.1655248
11	0xbd88ac51	-0.06673492
12	0x3eb86da2	0.36021143
13	0x3e13215c	0.14368194
14	0xbe784c3b	-0.2424783
15	0x3d1b14f4	0.03786178
16	0x3c8fa91b	0.01753669
17	0xbe1362db	-0.14393179
18	0xbe93e914	-0.28888762
19	0x3e4c52a3	0.19953398
20	0x3dd5c22e	0.104374275
21	0xbe21b126	-0.15790233
22	0x3e7684ff	0.24074171
23	0xbe4d2265	-0.20032652
24	0x3e27a394	0.16370994
25	0xbde5f7ff	-0.11228942
26	0x3cd9fa95	0.026608745
27	0x3d6fb67f	0.05852365
28	0xbe4b7452	-0.19868591
29	0xbe830e46	-0.25596827
30	0xbdd9705b	-0.10617133
31	0x3b80e1ba	0.0039331587
32	0x3ea98d53	0.33115634
33	0x3eb2095e	0.34772772
34	0x3cbb5295	0.022866527
35	0x3d47c15f	0.048768397
36	0xbdf1efbd	-0.118133046
37	0x3e16b21b	0.1471638
38	0xbea3e739	-0.32012346
39	0xbdf6ca38	-0.12050289
40	0x3e4039c9	0.18772043
41	0xbe14d2aa	-0.14533487
42	0xbe057713	-0.13033704
43	0xbe640994	-0.22269279
44	0xbe4dd4a3	-0.20100646
45	0xbe1b86a0	-0.15188074
46	0xbcfb55b0	-0.030680507
47	0xbe64a510	-0.22328591
48	0x3da2a383	0.07941344
49	0x3de5becc	0.11218032
50	0xbe5a2d86	-0.21306428
51	0xbe1adee3	-0.15124087
52	0x3e814114	0.25244963
53	0xbd3df849	-0.04637936
54	0xbe045c85	-0.12925918
55	0xbd6ffea7	-0.058592465
56	0x3e0df6a9	0.13863625
57	0x3dac9571	0.08426941
58	0x3de935ae	0.11387192
59	0xbd4b9cf6	-0.049710236
60	0xbd9614a1	-0.073281534
61	0xbd17cd50	-0.037061036
62	0x3c24e813	0.010065096
63	0x3d22d548	0.039754182
64	0x3e5bcb66	0.21464309
65	0xbd41888a	-0.047249354
66	0xbe398be7	-0.18119775
67	0x3e113439	0.14180078
68	0xbe0e8c9f	-0.1392083
69	0x3caba427	0.020952297
70	0x3e849c27	0.25900385
71	0xbe4b69c4	-0.19864565
72	0xbd7806d1	-0.060553376
73	0x3e5e6c5a	0.2172102
74	0x3e1b121e	0.1514363
75	0x3edbf49f	0.4296007
76	0xbc1b6c76	-0.009486308
77	0xbd96c344	-0.07361463
78	0xbea21ab9	-0.31661013
79	0xbd861280	-0.06546497
80	0xbe209ce8	-0.15684855
81	0x3dec7aa8	0.11546832
82	0x3e5de985	0.21671112
83	0xbe0a741f	-0.13520859
84	0x3e5f8dc0	0.21831417
85	0xbd87f8b7	-0.066392355
86	0xbd551d5b	-0.05202995
87	0xbe40877a	-0.1880168
88	0x3e8240d3	0.25440082
89	0x3d3a78c4	0.045525327
90	0xbcbc4d1a	-0.022985984
91	0xbd52b8b6	-0.051445685
92	0x3df4b0f5	0.119478144
93	0x3e27d6ed	0.16390581
94	0xbd71a9dd	-0.058999885
95	0xbe035a67	-0.12827455
96	0x3e805e18	0.25071788
97	0x3ea3da5c	0.32002532
98	0x3e7a0edd	0.24419732
99	0xbc6366f7	-0.013879529
100	0xbe47d20a	-0.19513717
101	0xbe2e6b1b	-0.17033045
102	0x3e6b4fbe	0.22979638
103	0x3dba6c15	0.09102646
104	0xbc419b4a	-0.011816809
105	0x3c87b1fd	0.016564364
106	0x3c9e694f	0.019337324
107	0xbea86733	-0.32891235
108	0x3e03b04c	0.1286022
109	0xbd65fdb8	-0.05615017
110	0xbe45b37f	-0.19306754
111	0xbcff8def	-0.031195609
112	0xbe096c6f	-0.1342027
113	0xbd18c9d3	-0.03730185
114	0xbe15cded	-0.14629336
115	0xbc3b4379	-0.011429661
116	0xbbc23ccc	-0.0059276577
117	0x3e55424a	0.20826069
118	0xbe244b59	-0.16044368
119	0xbd7667fe	-0.06015777
120	0xbd61a76b	-0.055091303
121	0xbe92f3dc	-0.28701675
122	0xbddd10b7	-0.10794204
123	0xbdc58cd3	-0.09646001
124	0xbe2be17f	-0.16785239
125	0x3de800f4	0.11328307
126	0xbe017315	-0.12641557
127	0x3d45e67c	0.04831551
128	0x3e2b78e9	0.16745342
129	0xbd633588	-0.055470973
130	0xbdeaa9f1	-0.11458195
131	0xbc43f126	-0.01195935
132	0xbdfc0429	-0.12305481
133	0xbd81e0cf	-0.06341707
134	0x3e3b041c	0.18263286
135	0x3d9cd36b	0.07657512
136	0xbe3e0739	-0.18557443
137	0xbe1eb723	-0.15499549
138	0xbc4f26d1	-0.012643532
139	0xbeab62c3	-0.33473787
140	0xbe44fecb	-0.19237821
141	0xbe6e4a81	-0.23270608
142	0xbe5db4ce	-0.21651003
143	0xbe40c162	-0.1882377
144	0x3e31f83a	0.17379847
145	0x3dcbbc2d	0.09948001
146	0xbd411a10	-0.047143996
147	0x3e89436b	0.26809248
148	0x3e957cba	0.2919672
149	0xbe37c9b1	-0.17948033
150	0xbc0006dd	-0.007814136
151	0xbe0021d6	-0.12512907
152	0x3e43b0ea	0.19110456
153	0x3da42ae5	0.08015994
154	0x3c8b8dd5	0.017035404
155	0xbe68e8f8	-0.2274512
156	0xbe3e4c1d	-0.18583722
157	0x3e8d8901	0.27643588
158	0x3db9cf95	0.09072796
159	0x3c7e9ceb	0.015540342
160	0xbe2f0567	-0.17091905
161	0xbcdb27e2	-0.026752416
162	0xbe52dbdc	-0.20591682
163	0xbe9d6921	-0.3074427
164	0xbe9bad97	-0.30405876
165	0xbe1b47bb	-0.15164082
166	0xbe18451e	-0.14870116
167	0x3d72827b	0.059206467
168	0x3d0c3387	0.034228828
169	0xbdddd2c1	-0.10831214
170	0xbcd95f4b	-0.026534697
171	0xbdc6b1a0	-0.09701848
172	0x3e264745	0.16238125
173	0x3cba490a	0.022739906
174	0x3c8fdd5d	0.017561609
175	0xbdd16176	-0.10223667
176	0x3e849659	0.25895956
177	0xbe4a9827	-0.19784604
178	0x3e334e83	0.17510419
179	0x3e0e678c	0.13906687
180	0xbdefbc14	-0.11705795
181	0xbd2fb8c8	-0.04290083
182	0xbd91ec83	-0.07125189
183	0xbe8a9487	-0.27066442
184	0xbe3a12db	-0.18171255
185	0xbe043834	-0.12912065
186	0x3e8f05cd	0.27934113
187	0x3e2fd6da	0.17171803
188	0xbd917c68	-0.07103807
189	0x3e0464e6	0.12929115
190	0x3cbc9f13	0.023025071
191	0x3ebc1d12	0.3674093
192	0x3c2f24bc	0.0106899105
193	0x3bea0ed6	0.007142882
194	0xbde2b4c8	-0.110696375
195	0xbdfaed97	-0.12252348
196	0x3d1007c4	0.035163656
197	0xbea08656	-0.3135249
198	0xbe1130ab	-0.14178722
199	0xbd56b5ec	-0.052419588
200	0xbd153e94	-0.036436632
201	0x3df11fa9	0.11773617
202	0x3d09691b	0.033547502
203	0xbeafff7d	-0.3437461
204	0x3cdb33d4	0.026758112
205	0x3e960042	0.29297072
206	0xbd8a52b8	-0.067540586
207	0xbe92848e	-0.28616756
208	0xbb0a3ab1	-0.0021092112
209	0x3e2cd442	0.16877845
210	0xbe795ab1	-0.24351002
211	0xbe2deab5	-0.16984065
212	0x3e803522	0.25040537
213	0x3e8e4715	0.27788606
214	0xbe01ad0b	-0.12663667
215	0x3e8e067b	0.2773932
216	0xbe73f480	-0.23823738
217	0x3de9c06a	0.11413653
218	0xbe43b629	-0.19112457
219	0x3c6c83a7	0.014435685
220	0x3e782e8a	0.24236503
221	0xbda33874	-0.07969752
222	0xbdbe3194	-0.092868
223	0xbdaff21d	-0.08591101
224	0x3e555e4c	0.20836753
225	0x3d0169ce	0.031595044
226	0xbe82c86e	-0.2554354
227	0xbd775257	-0.06038126
228	0x3e3237c2	0.17404082
229	0xbd89a122	-0.06720187
230	0xbdcea25d	-0.10089562
231	0x3e31b814	0.17355376
232	0x3d3eaac7	0.046549585
233	0xbdcfc957	-0.101458244
234	0xbe75ec25	-0.24015863
235	0xbdcff147	-0.10153442
236	0x3cd1eec3	0.025626546
237	0x3e3b7fa2	0.18310407
238	0x3e6a10bb	0.22857945
239	0x3de87713	0.113508366
240	0x3d33e930	0.043923557
241	0xbe913807	-0.28363058
242	0x3e6a0778	0.22854412
243	0xbd7d0c74	-0.061779454
244	0xbe8bd3d8	-0.2731006
245	0xbdd32226	-0.10309248
246	0xbd58e8cb	-0.052956384
247	0xbeb52423	-0.35379133
248	0x3d15a0f1	0.03653044
249	0x3e821a2c	0.25410593
250	0xbea1d0f8	-0.31604743
251	0x3ca2e450	0.019884259
252	0xbe38e6c5	-0.18056782
253	0xbe9cdee7	-0.3063881
254	0x3d70a041	0.05874658
255	0xbea49a40	-0.32148933

fc2.weight f4 [256, 512]
0	0xbcb37835	-0.021907905
1	0xbe80a135	-0.2512299
2	0xbe105724	-0.14095742
3	0xbd80d760	-0.062910795
4	0xbdea9438	-0.11454052
5	0xbeac5bbc	-0.33663738
6	0x3e1da0ad	0.15393324
7	0x3cbb0a7f	0.022832153
8	0xbd92c793	-0.07166972
9	0xbe8ee49e	-0.27908796
10	0x3dce776e	0.10081373
11	0x3d2d8952	0.042367287
12	0x3d981f31	0.07427824
13	0x3d913064	0.07089308
14	0xbe33a047	-0.1754161
15	0xbe3e96c9	-0.18612207
16	0x3d063f98	0.03277549
17	0x3d4a96b0	0.049460113
18	0x3d0bc435	0.034122664
19	0xbd2d0ed4	-0.04225047
20	0xbd9c9f4b	-0.0764757
21	0x3c811f5c	0.015762024
22	0xbdad977e	-0.084761605
23	0xbd840bbd	-0.064475514
24	0xbe431c25	-0.19053705
25	0xbc38e2d8	-0.0112845525
26	0xbec921f7	-0.39283726
27	0xbe90bcf5	-0.28269163
28	0xbda9cf58	-0.08291501
29	0xbdcc3646	-0.09971289
30	0xbe286182	-0.16443446
31	0xbcaf438c	-0.021394514
32	0xbe14ba10	-0.14524102
33	0x3c6fd0b4	0.014637161
34	0xbd9a97fd	-0.07548521
35	0x3bccb24c	0.0062468406
36	0xbe50576b	-0.20345847
37	0xbe70919c	-0.23493046
38	0xbe54391f	-0.20724915
39	0x3d9f9b01	0.077932365
40	0xbdac8d82	-0.08425428
41	0xbd9f9a8c	-0.07793149
42	0x3def13e6	0.11673717
43	0xbd8804ce	-0.066415414
44	0xbe813365	-0.25234523
45	0x3d71c897	0.059029188
46	0xba0426e2	-0.00050411944
47	0xba07043c	-0.0005150472
48	0xbdc0cfdc	-0.09414646
49	0xbe60b49f	-0.21943901
50	0xbea8739e	-0.3290071
51	0xbd29fc00	-0.04150009
52	0xbd825312	-0.06363501
53	0x3d887ab8	0.06664032
54	0xbcfe967a	-0.031077612
55	0xbe0679a8	-0.13132346
56	0xbdd4b51f	-0.103861086
57	0xbd8dcf16	-0.06924264
58	0x39d95198	0.00041450257
59	0x3dadc1cd	0.0848423
60	0x3ded7e2f	0.11596333
61	0xbd9ecbe6	-0.07753734
62	0xbe454083	-0.1926289
63	0x3bfb2c5e	0.007665201
64	0x3d5a75b3	0.053334903
65	0x3e1c6c52	0.15275696
66	0x3e1a87d3	0.15090875
67	0x3d14bafa	0.036311127
68	0xbd860f77	-0.065459184
69	0xbe3fdbf8	-0.18736255
70	0x3b0d1f68	0.0021533612
71	0xbe7f74a8	-0.24946845
72	0xbe2ada8b	-0.1668493
73	0xbc707109	-0.014675387
74	0x3c5a09bf	0.013307988
75	0xbd280395	-0.04101904
76	0x3ba0b43e	0.004904299
77	0xbdeea893	-0.11653247
78	0x3d71d1f6	0.059038125
79	0xbd4868ed	-0.04892819
80	0xbe7061f7	-0.2347487
81	0x3d81767f	0.063214295
82	0x3d3f1d95	0.04665907
83	0x3dcf466d	0.101208545
84	0xbd4b8ace	-0.04969292
85	0xbde4dbf6	-0.11174767
86	0x3dcd9a08	0.10039145
87	0x3c8b2768	0.016986564
88	0x3c49b1c5	0.01231045
89	0x3e2e6040	0.17028904
90	0x3cf5d08d	0.030006671
91	0xbefb278d	-0.49053612
92	0x3da78f44	0.081816226
93	0x3df89050	0.121369004
94	0xbdf8066e	-0.12110601
95	0xbe825323	-0.25454053
96	0x3d7dc9b8	0.061959952
97	0x3d91ca11	0.07118619
98	0xbdbe4fe7	-0.09292584
99	0xbe3043bb	-0.17213337
100	0xbe388dc8	-0.18022835
101	0xbddef2a6	-0.10886125
102	0xbd2a1db1	-0.041532222
103	0x3ba4f541	0.0050341194
104	0x3ddc6780	0.107619286
105	0x3d097a87	0.033564117
106	0x3da14b0e	0.07875644
107	0x3d022bae	0.031779937
108	0xbdc2e619	-0.09516544
109	0xbd62760d	-0.055288363
110	0xbdaa0e4b	-0.083035074
111	0x3de5fd27	0.112299256
112	0x3c90462e	0.01761159
113	0x3dfb9462	0.12284161
114	0xbd8273f8	-0.063697755
115	0xbcedbd54	-0.029020943
116	0x3dbf7d45	0.09350065
117	0x3e2117ee	0.15731785
118	0x3d828bfe	0.06374358
119	0xbdbe0bd8	-0.09279603
120	0x3d95a9cb	0.07307776
121	0xbcce2941	-0.025166156
122	0x3c8904ac	0.01672586
123	0xbddc8af8	-0.10768694
124	0x3d256373	0.040378045
125	0xbb1058ad	-0.002202551
126	0xbe0529db	-0.13004248
127	0xbe70adc1	-0.23503782
128	0xbc365937	-0.011129669
129	0xbe418cb1	-0.18901326
130	0xbdb0fb85	-0.086417235
131	0x3d8e6a96	0.069539234
132	0xbdf1adf4	-0.11800757
133	0xbd71df74	-0.059050992
134	0xbba5ef07	-0.0050638947
135	0x3dff0ff8	0.12454218
136	0xbebb9ee4	-0.3664466
137	0xbe1b75fe	-0.15181729
138	0xbdea3b8c	-0.11437139
139	0xbc251704	-0.010076288
140	0xbe0d54a3	-0.13801818
141	0x3db8d546	0.09025054
142	0xbdc10a6a	-0.094258144
143	0x3e24ce69	0.16094364
144	0xbe331a56	-0.17490515
145	0xbde87b96	-0.11351697
146	0x3d772ba7	0.060344364
147	0xbdaae8d8	-0.08345193
148	0xbe0d9cdd	-0.1382937
149	0xbe455267	-0.19269715
150	0xbd586c16	-0.052837454
151	0xbe2249e1	-0.15848495
152	0xbe12db38	-0.14341438
153	0xbe1ef2a4	-0.15522248
154	0xbe11ee6e	-0.1425111
155	0xbcf324b9	-0.029680597
156	0xbd32ce85	-0.043653984
157	0xbdc3deef	-0.095640056
158	0x3d3dd2fc	0.04634379
159	0xbda9d2c6	-0.08292155
160	0xbdf17c99	-0.11791343
161	0xbe03942f	-0.12849496
162	0xbd9cfe35	-0.07665674
163	0xbdc89051	-0.09793151
164	0xbe85eb6a	-0.2615617
165	0xbd685af2	-0.056727357
166	0x3c2939b4	0.010328699
167	0x3e675fd8	0.22595155
168	0xbd1e8ecd	-0.038710404
169	0xbcc601b7	-0.02417074
170	0xbd9f0397	-0.077643566
171	0xbddb23c2	-0.1070018
172	0xbd45421e	-0.048158757
173	0x3d274ef7	0.04084679
174	0xbd405c44	-0.04696299
175	0xbe1802ea	-0.14844862
176	0x3c06a90a	0.008219013
177	0x3b263267	0.0025359632
178	0xbe0f18d6	-0.13974318
179	0xbe8e106a	-0.27746898
180	0xbd82862c	-0.063732475
181	0xbb4ce90d	-0.0031266839
182	0x3ba7f214	0.0051252935
183	0xbdb6ebb4	-0.089316756
184	0xbe4d535a	-0.20051327
185	0xbc903eff	-0.017608164
186	0x3d721049	0.059097562
187	0xbd75acb8	-0.05997917
188	0x3c4cc471	0.012498007
189	0xbe081f71	-0.13293244
190	0xbe0e98e1	-0.13925506
191	0xbdcfabf2	-0.10140218
192	0x3e44731f	0.1918454
193	0xbe3fe7ac	-0.1874072
194	0xbecc06a6	-0.39848822
195	0xbead50c1	-0.33850673
196	0x3c80ce3f	0.015723346
197	0xbebae7c3	-0.36504945
198	0x3d8f4049	0.06994683
199	0xbc858193	-0.016297137
200	0xbe28f5c2	-0.16499999
201	0x3de55eb5	0.111997046
202	0x3de04439	0.109505124
203	0x3d31417c	0.04327534
204	0x3d92edff	0.071743004
205	0xbcc284af	-0.02374491
206	0x3e1a83cd	0.1508934
207	0x399d20a4	0.00029969693
208	0x3c5f2d61	0.013621659
209	0xbe09c71a	-0.13454857
210	0x3e46c746	0.19411954
211	0x3d989410	0.07450116
212	0xbddc442d	-0.10755191
213	0x3dd2eddd	0.10299275
214	0x3d97c112	0.07409872
215	0xbdcfe421	-0.10150934
216	0xbbb5d29f	-0.0055487896
217	0xbda1639a	-0.078803256
218	0xbe02b719	-0.12765159
219	0xbd04b4a6	-0.032398842
220	0xbd45b379	-0.04826686
221	0xbc219999	-0.009863281
222	0x3de5210d	0.111879446
223	0xbe2da43c	-0.16957182
224	0x3dae7f03	0.08520319
225	0xbcfebb6b	-0.031095227
226	0xbe3576eb	-0.17721145
227	0x3c04ea6b	0.00811253
228	0xbdd0c55e	-0.10193895
229	0xbe6f0e2d	-0.23345251
230	0xbdb83b7c	-0.08995721
231	0xbddb2e1a	-0.107021526
232	0x3d73ded2	0.05953867
233	0x3cd701ba	0.02624594
234	0xbcb7173f	-0.022349952
235	0xbd2e5f4e	-0.04257136
236	0x3e10060a	0.14064804
237	0xbe4c5a4c	-0.1995632
238	0x3d1457dd	0.036216605
239	0xbd8a5b12	-0.067556515
240	0xbc2bb9ee	-0.010481341
241	0xbdf5a83d	-0.119949795
242	0xbce340f3	-0.027740931
243	0x3d30594e	0.043053918
244	0xbdd613e6	-0.10453014
245	0xbc0d01af	-0.008606358
246	0xbdbe5896	-0.0929424
247	0x3bc26305	0.005932214
248	0xbdee1c19	-0.11626453
249	0x3d249859	0.040184353
250	0x3ca28d68	0.019842818
251	0xbcba7297	-0.022759719
252	0xbe86f71e	-0.2636041
253	0xbe0e1f92	-0.1387923
254	0xbe226850	-0.15860105
255	0xbdfb375f	-0.122664206

fc2.bias f4 [256]
0	0x3c6f1170	0.01459156
1	0xbdd50b63	-0.104025625
2	0xbe3fc55d	-0.18727632
3	0xbe47d079	-0.1951312
4	0xbe0002ff	-0.12501143
5	0xbbd289de	-0.0064251265
6	0xbd4d28c5	-0.05008771
7	0xbd0f402b	-0.034973305
8	0x3c00962c	0.007848304
9	0xbd1d40a8	-0.03839174
10	0xbe3703c6	-0.17872533
11	0xbdb76217	-0.08954256
12	0x3d56f9c0	0.052484274
13	0xbc82384e	-0.015895989
14	0xbbee5bd2	-0.0072741294
15	0xbcc876d4	-0.024470724
16	0x3bda598a	0.006663506
17	0xbe152579	-0.14565076
18	0xbb8f33af	-0.004370175
19	0x3b5d6ad4	0.0033785598
20	0xbdc557ec	-0.096359104
21	0xbe1055f4	-0.14095289
22	0xbe7a89d8	-0.24466646
23	0x3acc40c7	0.001558327
24	0xbc6a7edd	-0.014312473
25	0xbd278746	-0.04090049
26	0xbd11114e	-0.035416894
27	0xbe4319be	-0.19052789
28	0xbdd9f9d0	-0.10643351
29	0x3dc3c8e5	0.09559802
30	0xbe35a3b4	-0.17738229
31	0xbd96f24c	-0.07370433
32	0xbda8b8e5	-0.08238391
33	0x3c95cc37	0.018285854
34	0x3d997c5b	0.07494422
35	0x3cc767a6	0.024341416
36	0xbd324a4f	-0.043527897
37	0xbd667c3a	-0.056270815
38	0xbd85fc81	-0.06542302
39	0xbca8fa59	-0.020627188
40	0x3cb1cc3b	0.02170383
41	0xbd1f5074	-0.038895085
42	0xbd7edc54	-0.06222184
43	0xbdb017fe	-0.08598326
44	0x3d425289	0.047441993
45	0xbc7a5180	-0.01527822
46	0xbda104c0	-0.07862234
47	0xbda85d75	-0.082209505
48	0x3de16298	0.110051334
49	0xbe22f7d8	-0.15914857
50	0xbe27ff6f	-0.16406034
51	0x3d5d1988	0.053979427
52	0xbd98f994	-0.07469478
53	0xbdd8ff20	-0.10595536
54	0xbcebde27	-0.028792454
55	0xbdc34b04	-0.095357925
56	0xbe6d8c55	-0.23198064
57	0xbe3ba2f4	-0.1832388
58	0xbcb50d49	-0.022101061
59	0x3d28a7ab	0.041175526
60	0xbdb1c5d7	-0.08680313
61	0xbd0e641b	-0.034763437
62	0xbcdc0770	-0.026859015
63	0xbd87c22c	-0.06628832
64	0x3dd471ea	0.1037329
65	0xbdc474a1	-0.09592558
66	0xbe3b75eb	-0.18306701
67	0xbda52977	-0.080645494
68	0x3c0a9707	0.008458859
69	0x3d1d7169	0.038438234
70	0xbbf3c095	-0.007438729
71	0x3db46b5c	0.0880954
72	0xbd92ed53	-0.07174172
73	0xbe459ef1	-0.19298913
74	0xbd8cfb94	-0.06883922
75	0x3de87e8b	0.11352261
76	0xbdcc8225	-0.099857606
77	0xbd043a33	-0.032282066
78	0x3dbd470e	0.09242068
79	0xbddc994a	-0.10771425
80	0xbd957e47	-0.07299476
81	0xbd407af8	-0.046992272
82	0xbc3e1417	-0.0116014695
83	0xbdf5add7	-0.11996048
84	0xbdb84e18	-0.0899927
85	0xbd39ed80	-0.045392513
86	0xbd69bbf3	-0.057064008
87	0x3e02ec0f	0.12785362
88	0x3d91c9f6	0.07118599
89	0x3d7664dc	0.06015478
90	0xbd846494	-0.06464496
91	0x3ce8dcc3	0.02842558
92	0xbdd11210	-0.10208523
93	0xbddc98e6	-0.107713506
94	0x3db8b8ae	0.090196
95	0xbd076304	-0.033053413
96	0xbd095836	-0.03353139
97	0x3d8a57ec	0.06755051
98	0xbd14457d	-0.03619908
99	0x3c97d782	0.01853538
100	0xbda78558	-0.0817973
101	0x3ba1ea62	0.0049412707
102	0x3d99172e	0.07475124
103	0xbd1996bb	-0.037497263
104	0x3cbf2fea	0.023338277
105	0x3e124c9f	0.14287041
106	0xbe1a377c	-0.15060228
107	0xbdb3b667	-0.08775025
108	0xbe3e14d0	-0.18562627
109	0xbdd24c28	-0.10268432
110	0x3d9f177b	0.077681504
111	0xbd5159ad	-0.051110912
112	0xbdd5cdd0	-0.10439646
113	0xbcc10380	-0.02356124
114	0x3b941a97	0.0045197713
115	0xbda2689b	-0.07930108
116	0xbd93b691	-0.07212556
117	0xbe5262d8	-0.20545518
118	0xbdea3a31	-0.114368804
119	0x3daf65a5	0.08564309
120	0xbe067378	-0.13129985
121	0xbb1ab297	-0.0023604983
122	0xbde86b71	-0.11348618
123	0x3d9b5c6f	0.0758599
124	0xbda5d7a7	-0.08097773
125	0x3d76cd2e	0.06025427
126	0xbd87bc26	-0.06627683
127	0x3deb30be	0.11483906
128	0x3d8e506d	0.06948934
129	0xbe01eb1a	-0.1268734
130	0x3d51f742	0.051261194
131	0x3bfe3f0f	0.007758982
132	0xbd23f983	-0.040032875
133	0xbde6394b	-0.112413965
134	0xbe3f6c26	-0.18693599
135	0xbd879ca3	-0.06621673
136	0xbd10c907	-0.035347965
137	0xbca352a8	-0.019936875
138	0x3d0bed4a	0.034161843
139	0xbd5e9629	-0.054342423
140	0xbd6dfea3	-0.05810417
141	0xbe2bb872	-0.16769579
142	0x3d42616c	0.04745619
143	0xbd4f0de7	-0.050550368
144	0xbc434c11	-0.011919991
145	0x3c906510	0.017626315
146	0xbd3b7cb5	-0.045773227
147	0xbd0fe007	-0.03512576
148	0xbe1676a2	-0.14693692
149	0x3e117f78	0.14208782
150	0x3a72517e	0.00092437107
151	0xbd0f629c	-0.03500615
152	0xbded96cf	-0.1160103
153	0xbd0a3208	-0.03373912
154	0xbb54b476	-0.0032456196
155	0xbde5c276	-0.11218731
156	0x3d12f5d4	0.03587897
157	0xbd6aa610	-0.057287276
158	0xbe170ce2	-0.14751008
159	0xbdb9812a	-0.09057839
160	0xbc854518	-0.016268298
161	0xbd863ef0	-0.06554973
162	0xbbd67225	-0.006544369
163	0x3d8d72d1	0.06906665
164	0x3cac426e	0.02102777
165	0xbda9e7f9	-0.082961984
166	0x3d1fcdd5	0.039014656
167	0xbdec39fa	-0.11534496
168	0x3de83701	0.11338616
169	0xbe29bfb2	-0.16577032
170	0x3d8ab8be	0.06773518
171	0xbc08185a	-0.008306587
172	0xbd915912	-0.07097067
173	0xbe15cfc3	-0.14630036
174	0x3c83dc0a	0.016096134
175	0xbdb8577c	-0.09001061
176	0xbe8a9920	-0.2706995
177	0xbda10c8e	-0.07863723
178	0x3c75795a	0.014982546
179	0xbd9a320a	-0.075290754
180	0xbd74843c	-0.05969642
181	0xbd47b7ff	-0.048759457
182	0x3c843149	0.016136782
183	0x3ce6ce7e	0.028174635
184	0xbbbbfc12	-0.005736836
185	0x3cfda195	0.030960837
186	0xbd541ee2	-0.051787265
187	0x3bef5fd5	0.0073051252
188	0x3c805b93	0.015668666
189	0xbe445101	-0.19171526
190	0xbe13f73c	-0.14449781
191	0x3b947f5f	0.0045317854
192	0x3db982c8	0.09058148
193	0xbc7234b6	-0.014783075
194	0xbe1e7535	-0.15474398
195	0xbcb58650	-0.022158772
196	0x3bd12ede	0.006383761
197	0x3cb2a86e	0.02180883
198	0xbe2b32a4	-0.16718537
199	0xbdf19b76	-0.1179723
200	0xbd749837	-0.059715476
201	0xbe053124	-0.13007027
202	0x3deb0ea1	0.114773996
203	0x3d819312	0.063268796
204	0xbd8d5e55	-0.06902758
205	0xba8ef75d	-0.001090746
206	0xbdb03e91	-0.086056836
207	0xbd84161e	-0.06449531
208	0xbe79f050	-0.24408078
209	0x3d596c93	0.05308206
210	0xbcbcf2e8	-0.023065045
211	0xbdd513f9	-0.104042
212	0xbc75a995	-0.014994045
213	0x3cdf7195	0.02727584
214	0x3c3eef7c	0.011653777
215	0x3dbb7dc9	0.09154851
216	0x3c55d424	0.013051067
217	0xbd1d3095	-0.03837641
218	0xbc6d6bfe	-0.014491079
219	0xbc7a929d	-0.015293744
220	0xbd1cbe0a	-0.038267173
221	0xbd61acbf	-0.055096384
222	0xbc52b7e0	-0.012861222
223	0xbe75fbb6	-0.24021801
224	0xbd085966	-0.033288382
225	0xbda69682	-0.08134176
226	0xbe1ad466	-0.15120086
227	0xbcd76359	-0.02629249
228	0xbd9f43fd	-0.077766396
229	0xbdeb6129	-0.11493141
230	0xbe48aa37	-0.19596182
231	0xbe1b8fd5	-0.15191586
232	0xbd505b59	-0.050868366
233	0x3d3a2e76	0.045454465
234	0x3bff85da	0.007797939
235	0xbdcd6528	-0.1002906
236	0xbd653e5e	-0.05596768
237	0x3e1ab884	0.1510945
238	0x3cd5ce7f	0.026099442
239	0xbe1ca752	-0.15298203
240	0xbd94dc2b	-0.07268556
241	0xbd64088c	-0.055672213
242	0x3d3b71a5	0.045762677
243	0x3ddddadc	0.1083276
244	0xbda47989	-0.080309935
245	0xbdc1d947	-0.094652705
246	0xbc6f10b9	-0.014591389
247	0x3cd841ed	0.026398623
248	0x3da17a1d	0.078846194
249	0xbdb18661	-0.08668209
250	0xbe032777	-0.12808023
251	0xbd1302b6	-0.035891257
252	0x3d3fed0b	0.04685692
253	0xbd8f6d72	-0.07003297
254	0xbc6edb5f	-0.014578669
255	0xbd152fea	-0.036422648

fc3.weight f4 [2, 256]
0	0xbe11f045	-0.14251812
1	0x3e13c244	0.14429575
2	0xbf2e28ed	-0.680312
3	0xbe41dff0	-0.18933082
4	0xbf2bc955	-0.67104083
5	0x3f041f61	0.5161038
6	0x3eca40ce	0.39502567
7	0xbe810d97	-0.2520568
8	0x3d548b7d	0.05189084
9	0xbe96a57a	-0.29423124
10	0x3d8b9ff8	0.06817621
11	0xbef312eb	-0.4747537
12	0x3cd6cb57	0.026220007
13	0xbe7e5b89	-0.24839605
14	0xbdf6f23a	-0.1205792
15	0xbe2dc9ee	-0.16971561
16	0xbe6d8b81	-0.23197748
17	0x3e4096c9	0.1880752
18	0x3d959079	0.073029466
19	0x3e52a7d2	0.20571831
20	0x3d9bb39a	0.07602616
21	0x3e06c531	0.1316116
22	0xbfb717bb	-1.4304117
23	0xbdf2e5aa	-0.11860211
24	0xbcd99d4a	-0.02656426
25	0xbee26a06	-0.44221514
26	0xbee098b4	-0.43866503
27	0xbe88dcfb	-0.26731095
28	0xbf4cfb18	-0.8007064
29	0xbecbfb5f	-0.39840218
30	0xbc911e86	-0.01771475
31	0x3e6b0bfe	0.22953793
32	0x3db92e6a	0.09042056
33	0x3d248c81	0.040173057
34	0xbe0593ef	-0.13044713
35	0x3e4fc680	0.20290565
36	0x3e631256	0.22174963
37	0xbea9067a	-0.33012754
38	0xbf09ee9b	-0.5387971
39	0xbed0074e	-0.40630573
40	0xbe0042b0	-0.1252544
41	0xbeecd21e	-0.46254057
42	0xbeb7e6b1	-0.3591819
43	0x3e8a2fdd	0.26989642
44	0x3f817d90	1.0116444
45	0x3e55e3f3	0.20887737
46	0x3f2d4b00	0.67692566
47	0xbe8f629f	-0.2800493
48	0x3c4f0a0a	0.012636671
49	0xbe3f6fbd	-0.18694969
50	0xbee90dc0	-0.45518303
51	0xbec14643	-0.37748918
52	0xbe9283e4	-0.2861625
53	0xbe1fee46	-0.15618238
54	0xbe425124	-0.18976265
55	0xba1ba381	-0.0005937145
56	0x3d758fc6	0.059951566
57	0xbedfba2d	-0.43696728
58	0xbdce9b10	-0.100881696
59	0x3e2ce4b4	0.16884118
60	0x3f594507	0.8487095
61	0xbe6d5401	-0.23176576
62	0x3f0619f8	0.52383375
63	0xbe65b42a	-0.22432008
64	0xbda9e7df	-0.08296179
65	0xbe3ad526	-0.18245372
66	0xbf098c5a	-0.53729784
67	0xbe1784e7	-0.14796792
68	0xbd9fcdfa	-0.07802959
69	0x3c504786	0.012712365
70	0x3f0aa130	0.541522
71	0x3cad53e1	0.02115816
72	0xbf1cd9f6	-0.6127008
73	0xbe787faf	-0.24267457
74	0x3f59157d	0.84798414
75	0xbc9bd05c	-0.019020252
76	0xbe8512c9	-0.25990894
77	0xbebe8cf3	-0.3721691
78	0x3de03812	0.109481946
79	0xbeacf7ad	-0.33782712
80	0xbddf4626	-0.10902052
81	0xbe0d578e	-0.1380293
82	0xbea939fd	-0.33052054
83	0x3e472853	0.19448976
84	0x3c58846c	0.013215166
85	0xbea51091	-0.32239202
86	0xbeb7d95b	-0.35908017
87	0xbe0938e2	-0.13400605
88	0xbf81ebf8	-1.0150137
89	0xbf72ad1a	-0.9479538
90	0x3ee9321b	0.4554604
91	0xbea52d74	-0.3226124
92	0xbd9bc01b	-0.076050006
93	0xbf1b6a0c	-0.6070869
94	0xbeba1173	-0.36341438
95	0xbd9dd748	-0.07707077
96	0xbe12260e	-0.14272329
97	0x3d9ae288	0.07562739
98	0xbc88b443	-0.016687518
99	0xbd0769de	-0.033059947
100	0xbe0acff2	-0.13555887
101	0x3deeb965	0.11656455
102	0xbedbf76e	-0.4296221
103	0x3e71c425	0.2360998
104	0xbc1d31c8	-0.009594388
105	0xbdeaa08f	-0.11456405
106	0xbf0572b7	-0.52128166
107	0x3fded627	1.7409104
108	0xbf94b620	-1.161808
109	0xbec76785	-0.38946167
110	0x3e615e4d	0.22008629
111	0xbf13daa7	-0.5775551
112	0xbe8dd132	-0.27698666
113	0x3f4e86b0	0.80674267
114	0x3e12caf1	0.14335229
115	0x3d5755b3	0.052571964
116	0xbdb7dbc6	-0.08977465
117	0x3e6f683e	0.23379609
118	0x3ecb5562	0.3971358
119	0xbe896c07	-0.2684023
120	0xbf0ca55c	-0.5493982
121	0x3dabde2d	0.08391986
122	0x3ecb901f	0.39758393
123	0x3d3d323b	0.04619048
124	0x3ed8849e	0.4228868
125	0xbc80bfc7	-0.015716447
126	0xbfacd992	-1.3503897
127	0xbd57bf0a	-0.052672423
128	0xbeccbec4	-0.39989293
129	0x3eb4460d	0.35209695
130	0xbee47dcc	-0.44627225
131	0xbf25dbc9	-0.6478849
132	0x3dcf9b16	0.10137002
133	0xbcf2f4d4	-0.029657759
134	0xbdc283d3	-0.094978
135	0x3e77c8ec	0.2419774
136	0xbe1507ee	-0.14553806
137	0xbf1c29b6	-0.61001146
138	0x3f52ad5e	0.8229579
139	0xbecc2003	-0.39868173
140	0x3d2c40bf	0.042053934
141	0x3f6c83ae	0.9238843
142	0x3f063c6b	0.5243594
143	0xbee2e81e	-0.44317716
144	0xbf95052e	-1.1642206
145	0xbe0c78d7	-0.13717972
146	0xbeaef594	-0.34171736
147	0x3e6e5848	0.23275864
148	0x3e003ac5	0.12522419
149	0x3ea7f831	0.32806543
150	0xbf98276a	-1.1887028
151	0x3f12cfe8	0.5734849
152	0xbf0b1e2d	-0.5434292
153	0x3ebb5f20	0.36596012
154	0x3f20d3b3	0.6282303
155	0x3e2a9268	0.16657412
156	0xbdaedc90	-0.08538163
157	0xbe4a4924	-0.19754463
158	0xbed95705	-0.42449203
159	0x3e1ec453	0.15504579
160	0xbc2c0295	-0.0104986625
161	0xbed75319	-0.42055586
162	0x3e82fe90	0.2558484
163	0xbe30e116	-0.17273363
164	0x3d3a1076	0.045425855
165	0xbea29bda	-0.3175953
166	0xbc045f84	-0.008079413
167	0x3d994e19	0.07485599
168	0x3e0ad6ef	0.13558553
169	0xbedf924d	-0.43666306
170	0xbe6d4db0	-0.23174167
171	0xbf2d65e1	-0.6773358
172	0xbdbd756e	-0.092509136
173	0xbef64727	-0.4810116
174	0x3f0bd0e3	0.5461561
175	0x3cf8f487	0.030390037
176	0x3f872662	1.0558589
177	0xbf58bb55	-0.84660846
178	0xbe391833	-0.18075638
179	0xbf71c0c5	-0.9443477
180	0xbed7715e	-0.4207868
181	0x3dcd5d5d	0.10027573
182	0xbec9840b	-0.39358553
183	0x3dd66dea	0.10470183
184	0x3e4dbe0e	0.20092031
185	0x3d48196c	0.04885237
186	0xbeb00df9	-0.3438566
187	0xbee3bf6a	-0.44481975
188	0xbddeb1f0	-0.10873783
189	0x3f991bf5	1.1961657
190	0xbe5ad339	-0.21369638
191	0x3effea33	0.49983367
192	0xbd9d9f8f	-0.07696449
193	0x3ed9be27	0.42527887
194	0xbec18b45	-0.37801567
195	0xbf041963	-0.5160124
196	0x3db68f08	0.08914
197	0x3e4e95fc	0.20174402
198	0x3e7d3893	0.24728613
199	0x3ed17e1f	0.40916535
200	0x3e24cae6	0.16093025
201	0xbf85c786	-1.0451515
202	0x3ea60e85	0.32432953
203	0xbded315f	-0.115816824
204	0xbf6b32d7	-0.9187445
205	0xbe11cdd3	-0.14238672
206	0x3e4d36ce	0.20040438
207	0xbed49b66	-0.4152481
208	0xbec52f36	-0.38512582
209	0xbea108fc	-0.31452167
210	0xbcba6f8f	-0.022758273
211	0x3ecabb34	0.3959595
212	0xbebbee4b	-0.3670524
213	0xbeb56b9e	-0.35433668
214	0xbf071f9b	-0.527826
215	0x3f44fd01	0.76948553
216	0xbf43e4b6	-0.7652086
217	0xbe65a170	-0.22424865
218	0x3d7b498a	0.06134943
219	0x3e602e41	0.21892644
220	0xbf15039e	-0.58208644
221	0x3fa7e2ba	1.3116066
222	0xbd330c95	-0.04371317
223	0x3f280c1c	0.6564348
224	0x3f37c972	0.71791756
225	0xbe72f848	-0.23727524
226	0x3eefe791	0.4685636
227	0xbeb392d5	-0.3507296
228	0x3e147f8e	0.14501783
229	0x3ea12cee	0.3147959
230	0xbe25d581	-0.16194727
231	0x3dfec5d9	0.1244008
232	0xbd6229b3	-0.05521555
233	0xbd0bca01	-0.034128193
234	0xbec6394e	-0.38715595
235	0xbee8dc56	-0.45480603
236	0xbeda2a0d	-0.42610207
237	0x3e9d9666	0.30778807
238	0xbdeeabcf	-0.11653864
239	0xbf101a6c	-0.56290317
240	0x3e884a0e	0.26619
241	0xbdc0bad7	-0.09410637
242	0x3e8ad266	0.27113646
243	0x3e0c3e39	0.13695611
244	0xbea3d0ef	-0.3199534
245	0xbf13570f	-0.57554716
246	0x3af01f31	0.0018319843
247	0xbf019668	-0.50620127
248	0x3e2688a8	0.16263068
249	0x3f0858bb	0.5326039
250	0xbe8d2a55	-0.2757136
251	0xbe708eaa	-0.23491922
252	0xbe96ef2b	-0.29479346
253	0xbe53f76c	-0.20699853
254	0xbfe3ed9f	-1.7806891
255	0xbde74451	-0.11292327

fc3.bias f4 [2]
0	0x3d8b5a62	0.068043485
1	0xbd3d2d90	-0.04618603
