checkpoint_actor0.5.pth (torch_old, 579589 bytes, 6 tensors)

fc1.weight f4 [512, 24]
00000000: 7853 d43b 6a07 51bd e864 a83b d2ef 2dbc
00000010: a26a 98be df26 2fbd 9dcd 523b ac2a a73c
00000020: d49e 253c 999e acbd 359d 2dbc d9bd d23c
00000030: 1f95 a0bc 24f6 febb f740 613c a67d 17bc
00000040: d99b 10bc 8173 4fbd 30ec d23c bc0f 733c
00000050: 412a a93e 3ff2 233e 1c7f 693a 2625 66bc
00000060: 7027 873d 3113 173e e3b7 fbbc ddcf 403d
00000070: de1f e93c 4a48 453e 9577 723b ca92 a3bc
00000080: 862c 1a3d 6fb4 1c3e 2005 ccbc 5244 4b3c
00000090: 3b42 033e 8041 a6bc 823e adbb b477 23bd
000000a0: 0139 7d3d 9d85 b23d 95e4 0cbd 46ac 5ebd
000000b0: 6eed 903e ffd4 1dbe 6695 db3c dc56 a43b
000000c0: 7075 123e 63b2 a33d e661 13bd 4041 3dbd
000000d0: 5159 74bd 239a d9bc b0e6 a1bd 84b7 b9bd
000000e0: 77ea d23d 5ad4 d63d 1df6 d03b e5e1 473d
000000f0: eb39 d53c 2b3d 04bd d401 8a3c 1d83 673d
00000100: 9af1 b83d 1ac5 443d e152 5f3d 6545 76bd
00000110: f213 363e 885a 44be e5e9 623c 91d9 aabc
00000120: 86d3 f1ba a163 f63c 992c 203d 2aa0 0cbd
00000130: 8dc8 78be 0c41 e5bd 4d58 37bd 4f10 a2bc
00000140: 69eb 293d 1987 fbbc ab4f e33c 9812 10bd
00000150: 9387 9f3c e76e 733d c181 1bbd 530c 07bd
00000160: 34d8 acbc 45d3 903c 50f1 a0bc dc71 153d
00000170: 03ca 9b3e 8365 6c3e 5103 2a3c 3f90 c73d
00000180: 9282 6abc a8a8 1b3e cf99 a93c 2d71 44bc
00000190: 47a4 7a3e aa8b d8bd c57d 98bc 8b6a 343d
000001a0: 4978 8fbc 8d76 5c3d bbb2 3bbb 07e4 5b3d
000001b0: f3bd 073e 7f86 f03c 5e3e f2bc dd9f 95bc
000001c0: fb3d b9bd f557 c23d 44f5 7b3c 8175 643d
000001d0: 1303 debd 2c53 a13e 40ba d5b9 1164 2a3d
000001e0: 74fc 743d a42d 943d 5b45 ef3c 6177 b43d
000001f0: c85a 1a3e b548 c4bd 4b19 c9bb 8260 463d
00000200: 9f69 a73d f518 f13d f192 4e3b cda9 85bd
00000210: c601 943d b185 f33d c044 54bc 99b0 31bd
00000220: 59cb eabc 249f 883d 1afa babb 0368 2a3d
00000230: f0cb bebb 4549 6c3e 1e7e 153b 716a 3b3d
00000240: c2f5 523c 3b2d 1fbd 119b 8c3c bf77 4bbd
00000250: ffd9 ae3e 3648 cc3d 93d3 103a bf0a 20bd
00000260: 2009 8b3d fd55 1fba 8bae 2e3d 27bb 5b3c
00000270: 7007 b53d a2c4 e83d d7f7 4a3d eb58 33bc
00000280: 566d 213c 2971 02bd 4a77 5abc afae f33c
00000290: b6e5 7fbe 921c f93c 3254 6abd 9ba9 483d
000002a0: 344f 26bd b2cb f73c 8c08 d9bb b423 30bd
000002b0: 0917 5bbe b970 653e 5e71 5dbc cb14 a03c
000002c0: f79f 0fbd 77b7 f8bc f978 973b bad7 84bd
000002d0: 1079 023d bb33 923d d391 fa3b b41e 853b
000002e0: 1805 a43c 1184 92bc 85c0 b7ba 509e 313d
000002f0: 5f89 453e af06 45be b730 ddb9 9c6e 5e3d
00000300: 962b 2e3d ef93 3b3d de68 4bbc 7785 1dbd
00000310: 9bde 60be 5d9c b5bc 502d 913b 6943 be3b
00000320: 1084 8dbc dd71 0c3c af7a 043d e3dd 553d
00000330: 4b73 113d 9dde 413c b4b1 febb 5a22 e13c
00000340: 619b 15bc b014 11bc 8600 083d 7542 e13c
00000350: 18a3 7e3e db4a 973d ea55 46bc 5381 e43c
00000360: e150 703d 67b6 453e ce8c 12bc 6c0d 95bd
00000370: e149 803d 575b 7bbd edb1 e9bb 7040 b2bd
00000380: 42b0 243c bc02 063e 5684 653c 775f c4bd
00000390: 3857 3d3e 907d 3dbe 2216 893b 57b5 90bd
000003a0: 5361 2e3d 9751 453e 09f5 293b 89c5 093e
000003b0: 0fe5 313e c7b9 b23b e682 27bd e0cd ab3d
000003c0: d130 57bc 90b3 87bc 7dac db3c 2eb0 bfba
000003d0: cf9c 95be 4028 243d 2a55 0bbd 2d8a 0fbb
000003e0: fe70 2c3d b1cd f8bc 7b26 bb3a 7d7f 0c3d
000003f0: 3b99 153d ee9c f13d e6fd b2bc 61f2 0e3d
0.006479677 -0.05103246 0.005138982 -0.01061626 -0.29768854 -0.04276168 0.0032166012 0.02040609
0.010108668 -0.084286876 -0.010596563 0.025725292 -0.019602356 -0.007780807 0.013748399 -0.0092462655
-0.0088262195 -0.050647262 0.025747389 0.014835294 0.3304005 0.16010378 0.00089071854 -0.014046943
0.06599319 0.14753415 -0.030727332 0.047073234 0.028457578 0.19265857 0.0036997546 -0.019967455
0.037640117 0.15303205 -0.024904788 0.012406426 0.12818234 -0.020294905 -0.0052869925 -0.03990908
0.06182194 0.08716891 -0.03439768 -0.05436351 0.28306144 -0.15413283 0.026804637 0.0050152373
0.14302611 0.07993009 -0.035982035 -0.046204805 -0.05965549 -0.026562756 -0.07905328 -0.09068206
0.10298627 0.104897216 0.0063769952 0.048799414 0.026028594 -0.032284897 0.016846575 0.056521524
0.09030457 0.048039533 0.0545224 -0.060124774 0.17781046 -0.1917516 0.01384971 -0.020855697
-0.001844988 0.030076804 0.03910503 -0.03433243 -0.24295254 -0.11194047 -0.044761945 -0.019783167
0.04148427 -0.030704068 0.02774795 -0.035173982 0.019473827 0.059431937 -0.03796554 -0.032970738
-0.021099187 0.017678866 -0.019646317 0.036485538 0.3042756 0.23085599 0.010376767 0.0974431
-0.014313357 0.15201056 0.020703224 -0.011989874 0.2447673 -0.10573514 -0.01861466 0.04404692
-0.017513411 0.053823996 -0.0028640467 0.05368426 0.13256054 0.029361008 -0.029570755 -0.018264705
-0.09045025 0.09489433 0.0153783 0.055776123 -0.1084043 0.31508768 -0.00040765293 0.041599337
0.05981107 0.07235268 0.029207876 0.08811832 0.15073693 -0.0958418 -0.0061370484 0.04843188
0.081744425 0.11772338 0.003152069 -0.065265276 0.07226901 0.11890734 -0.012955844 -0.043381307
-0.028661417 0.06670979 -0.005706084 0.0416031 -0.005822651 0.23074825 0.0022810767 0.045755807
0.012875976 -0.038861495 0.017163785 -0.049674746 0.34150693 0.09974711 0.0005524691 -0.03907275
0.0678885 -0.0006078182 0.042646926 0.01341132 0.08839309 0.1136563 0.049552765 -0.010946493
0.009852728 -0.0318462 -0.013334105 0.029746382 -0.24989972 0.030409131 -0.0572092 0.048989873
-0.040602878 0.030248497 -0.0066233333 -0.0430028 -0.21395506 0.22406282 -0.013515798 0.019541165
-0.035064664 -0.03036092 0.0046225754 -0.06486459 0.031853735 0.07138773 0.007646778 0.004062498
0.02002196 -0.01788524 -0.0014019167 0.04336387 0.19290684 -0.19240831 -0.000421887 0.054304704
0.042522036 0.045795377 -0.012415139 -0.03845736 -0.21959917 -0.022169286 0.0044304505 0.0058063758
-0.017274886 0.008572069 0.032343563 0.05221356 0.035510343 0.01183286 -0.0077726487 0.0274822
-0.0091312835 -0.00885503 0.033203624 0.02749751 0.24866903 0.073873244 -0.012105444 0.027893698
0.058670882 0.19307862 -0.008944703 -0.07277951 0.06264091 -0.061366405 -0.007131806 -0.08703697
0.010051789 0.1308698 0.014008602 -0.09588521 0.18490303 -0.1850493 0.0041835466 -0.07065838
0.042573284 0.19269405 0.0025933406 0.1345426 0.17372535 0.0054542753 -0.04089632 0.08388877
-0.013134197 -0.016565114 0.026815647 -0.0014624649 -0.29221198 0.040077448 -0.034016766 -0.0021902428
0.042099945 -0.030371519 0.0014278436 0.03430127 0.036523085 0.1179751 -0.021849584 0.03489912

fc1.bias f4 [512]
00000000: f05c cdbd cfcf b8bd 13a0 c2bd 943c b4be
00000010: 8041 a5bd 5822 a0bd 5f2d 88bd c353 983e
00000020: 6219 22be 9300 30be 270d 88be 6de6 3e3d
00000030: f696 073e f049 f73c 349c a4be db59 a4bd
00000040: 8d51 e23d 4136 0d3d 108f 82be 46ee ad3e
00000050: 84c7 d13e cb7b 1abd 2237 853e 28f1 6fbe
00000060: 5bc7 483d ace2 f83d e83b afbc 0130 5a3e
00000070: e2e8 2ebe 9a12 7cbe bf72 10be e0ed 113e
00000080: dcd9 a13e 56b8 7d3e eb89 94bd 1e83 0abc
00000090: 1d09 03be f935 02be 716b b4be 805f 2dbe
000000a0: deee 473d deb8 133e e855 983d b95a da3b
000000b0: 1203 903b 5d86 343e 33f5 bf3c a77b 90be
000000c0: a290 993e 7b0c 3c3e 9497 a1be 2362 7f3c
000000d0: 0899 58be 2b70 da3d 6ec9 64be 0b65 4a3d
000000e0: 3148 6fbd f653 083d 1d47 073d 4d8d ad3d
000000f0: 8c97 f43d 7beb cdbd a249 12be be98 a33d
00000100: 1dc7 b83d 0904 0ebe 3a36 44be 2649 abbc
00000110: b722 29be 8204 993d ad03 c63e ef59 32be
00000120: 141b 0d3d ed0a 533e 89cc 6ebd 608c 123e
00000130: 5666 19bd a484 023e c074 61be 6cfa 1fbd
00000140: 3542 773d e887 b33e 7bd8 d13d fa2e 03be
00000150: b2f9 ac3d 5fda d93b b6cb 79be 7ad9 e03d
00000160: 333b 1e3e a7eb c53d 8a24 ce3d 6a64 b73d
00000170: 726d ac3e b58d 3bbb c859 473e 63f1 76bd
00000180: 04ee 9a3d 54a4 6c3e 687d 373e c6df 5e3e
00000190: a06a 79be b8d2 8dbe 5892 913e e20a 663e
000001a0: dc80 2d3e 3b7c 0c3d c30a 13be 6b2a 47be
000001b0: ec5e 6b3e f0df 26be 5ebe 24be 6d42 d5bd
000001c0: 3fea 11be 8cc4 91be 2a30 57be 01bb 3cbe
000001d0: 8eb4 c8bd d22d 203e e666 0dbe 5b6c 80be
000001e0: 03f0 d7bd c3bb cbbd 262d d4be 00ef 72bd
000001f0: aa73 943d 89b3 5b3e 62ac 56bd ca07 873e
00000200: 062b e33d 326a af3d f265 65bd f31e 6ebe
00000210: 81e5 f2bd 2ed9 60be cf1e 7e3e 3d87 793e
00000220: 31dd 08bc a2e1 57be 4407 883d 5fbd 82be
00000230: ec8e 5a3c 39ed 4fbe 8e56 98be dd07 53be
00000240: 1b3b 8e3e 121d 0dbd 1cf1 d9bc 2a15 863e
00000250: f0be 893c a8d1 2f3e 13f2 0ebd 8029 913d
00000260: 1ac7 ec3d 7e86 dabc f131 9dbd 11ac c5be
00000270: 2911 25be ba45 0b3c 8157 9f3d 618f c13d
00000280: b43b cbbd d7a4 293e 49e6 19be 2f82 29be
00000290: a4b3 a2be dd1f fa3d 1129 d93c 4cc5 003e
000002a0: a6d2 c0bc 898d 563d 9751 c13d 0502 07bd
000002b0: ed1b 15bd 5928 8e3d 487e 26be 528c e23d
000002c0: 581d 1f3e 4b2b 1abe 59a8 183e 3f45 14be
000002d0: c16e abbd 7375 b93c 1781 ce3c 7dd9 4fbe
000002e0: ccd0 90bc 8ae7 1dbe 6caa ab3e 5c8a 483e
000002f0: c10b 15bd 6a1f 643e 3422 703e 060e 023d
00000300: 5da0 d63a 9372 243d b8c5 8c3b 58cf bc3b
00000310: 96d8 a5bd 2170 56be 2e49 ea3d 6006 49be
00000320: 49d5 713d b50e eb3d 7482 4abd f6a4 37be
00000330: 4f21 afbd 7e14 9d3e a196 55be 3502 45be
00000340: fdc2 693c fc9d 803e ab8e bfbd 2617 9bbe
00000350: 8564 6bbc abb0 7a3e 2746 fe3a fe4b 8c3e
00000360: 93f8 94be 903b febc 0c55 88be 1025 4abd
00000370: bd90 3a3d 9141 88be b895 0fbe 2302 f2bc
00000380: c9ed d23d 0f1c d0bd 7cc6 eebd 0c82 233d
00000390: 8774 1c3c 5b9f cbbc b57d dbbb 8ad6 113d
000003a0: a680 20be a28f 9dbe ebc5 69be 2952 a3bd
000003b0: 2f87 bd3d 6b9b 663d 17d8 c73b 58c8 b5bc
000003c0: f236 423e 780a 94be 2c67 68bc 1809 bb3d
000003d0: 7787 f53c 0a87 3abe 3a2f babc 659b 90be
000003e0: ee9b 263e 3972 833e 3f93 9bbe 6849 0cbe
000003f0: 54d2 7cbe 1107 41be df35 253e 2e38 5fbe
-0.10027492 -0.09024011 -0.09503188 -0.35202467 -0.08069134 -0.078190506 -0.06649279 0.29751405
-0.15829995 -0.17187719 -0.26572534 0.04660647 0.13241181 0.030186623 -0.32150424 -0.08024951
0.11050711 0.03447557 -0.25499773 0.3397085 0.4097253 -0.037715714 0.26018625 -0.23431838
0.049018245 0.12152609 -0.02139087 0.21307375 -0.17081025 -0.24616471 -0.14106272 0.14250898
0.31611526 0.2477735 -0.07252868 -0.008454112 -0.12796445 -0.12715901 -0.3523822 -0.16930962
0.048811786 0.1442599 0.0743826 0.006663647 0.0043948973 0.1762938 0.02343235 -0.2821934
0.2999316 0.18364136 -0.31560957 0.015587362 -0.21152127 0.106659256 -0.22342464 0.04941277
-0.058418456 0.033283196 0.033026803 0.084742166 0.11942968 -0.1005468 -0.14285901 0.07988118
0.09022353 -0.13868727 -0.19161311 -0.020908903 -0.16517149 0.07471563 0.3867468 -0.1741712
0.03444965 0.20609637 -0.05830053 0.14311361 -0.03745111 0.12745911 -0.22017193 -0.03905718
0.060365874 0.35064626 0.102463685 -0.12810889 0.08446063 0.0066483463 -0.24394116 0.1097898
0.1545227 0.09664088 0.10065563 0.08954699 0.3367725 -0.00286184 0.19467843 -0.060288798
0.07564929 0.23109561 0.17918932 0.2176505 -0.2435708 -0.27699828 0.28431964 0.22465089
0.16943687 0.034298163 -0.14359574 -0.19449775 0.22985429 -0.16296363 -0.16088244 -0.1041306
-0.14249514 -0.28470266 -0.21014467 -0.18430711 -0.09800063 0.15642479 -0.13808784 -0.2508267
-0.105438255 -0.09947922 -0.41440696 -0.05930996 0.07248624 0.21455206 -0.05241049 0.2637313
0.110921904 0.08565177 -0.056005426 -0.23253994 -0.11860181 -0.21957847 0.2481644 0.24367996
-0.008353517 -0.21082166 0.06642011 -0.25535104 0.013339739 -0.20305337 -0.29753536 -0.20608468
0.2777947 -0.03445155 -0.026604228 0.26188022 0.016814679 0.17169821 -0.03489883 0.070879936
0.11561413 -0.026675459 -0.07675541 -0.3860784 -0.16119827 0.008500511 0.07780362 0.094511755
-0.09923497 0.16566788 -0.15029253 -0.16553567 -0.3177768 0.12213109 0.02650884 0.12575263
-0.023537945 0.052381072 0.0943939 -0.03296091 -0.036403585 0.069412895 -0.1625911 0.1106192
0.15538538 -0.15055577 0.1490797 -0.1447954 -0.08370734 0.022639012 0.02520804 -0.20297809
-0.017677687 -0.15420356 0.3352846 0.1958403 -0.036388163 0.22277609 0.23450547 0.031751655
0.0016374696 0.04014833 0.004296031 0.005762022 -0.08097951 -0.20941211 0.11439739 -0.19631338
0.059041295 0.114774145 -0.049440816 -0.17934021 -0.08551275 0.30679697 -0.20858242 -0.19239123
0.01426768 0.25120533 -0.09353384 -0.30291098 -0.014367227 0.24481456 0.0019399569 0.27401727
-0.29095897 -0.031034261 -0.26627386 -0.04935175 0.04554819 -0.26612523 -0.14021957 -0.029542034
0.1029926 -0.10161602 -0.11658952 0.039918944 0.009549267 -0.02485626 -0.006698335 0.03560499
-0.15674075 -0.30773646 -0.22829406 -0.07974655 0.092543 0.056300562 0.006098758 -0.022190258
0.18966272 -0.28914237 -0.014184754 0.09132594 0.029971821 -0.18215576 -0.022727598 -0.28243557
0.1627042 0.25673082 -0.30385777 -0.13699877 -0.24689609 -0.18850352 0.16133831 -0.21798775

fc2.weight f4 [256, 512]
00000000: 87b8 243e 0864 0fbe 8d10 783c 1e71 b53d
00000010: 9e02 9dbd 3500 fbbd 0a6f be3c b186 463d
00000020: e994 753c 0747 f93b fecc 56bc 57d6 2d3d
00000030: 7e30 b33d 6a16 bdbd 8c13 133d 16f3 97bd
00000040: 49bc 51bb 3833 ac3d ce31 e23b d127 0c3d
00000050: 76f4 163d e587 583c c8ce c13c d4e9 31bc
00000060: e96d 0dbd f868 813d 65cc c3bc 0af2 03bd
00000070: 7bf0 ed3c d509 0d3d 1971 4a3d 4c17 ed3c
00000080: 5c49 463c 7e59 863d e5c4 203e 1832 1d3d
00000090: d50a 94be 78f0 b4bd e376 2ebe ce8e fc3d
000000a0: b188 683d 113f 05bd 04f6 233d 89d7 673d
000000b0: 375b b1bd 9abf 9d3d 882f 39be 61bb 2ebd
000000c0: c900 023c 360d 3b3e fa63 0d3d df46 de3d
000000d0: 9fe3 9abe 5535 3e3d f199 d6bb ffda 9d3d
000000e0: e594 d03d 0d13 403d 9357 013e 7662 b43d
000000f0: 6959 f3bc 8ef8 a6bd 8b20 fabb 305f 043d
00000100: 6364 b6bc c614 543d 2971 cb3d 26c9 bf3d
00000110: 1061 de3d fc1c d03c f1bb e8bc feb3 a23c
00000120: 920a 623d dfd8 5a3d 41aa f5bc 9712 ed3c
00000130: 144d 9e3d 6a95 3e3d e960 d43c 701a 15bd
00000140: 24c0 043d 7862 603d 24b7 77bd ef3c 1b3e
00000150: 5d21 953b aded 11bd 8d27 213c 873c 3a3d
00000160: af10 b9bc ddad c63c 96a1 173e c2e1 d93b
00000170: 844c 68bb d43e b63d 2784 713c 428c 12be
00000180: 4315 4f3e e539 cebc 9189 6fbc b021 253d
00000190: 61dc 433d a920 2c3c 45c7 3f3d 7dcd 733d
000001a0: f213 e9bc 3307 99bd 2107 273e 1484 a53d
000001b0: 2fe7 7c3b 9c36 b83d c3cf 383d f2a2 523d
000001c0: e509 a63c 74cd 83be f4e5 7fbc 5e56 fb3c
000001d0: ae48 fabc 07ef 363d 9bbf de3d 8783 01bd
000001e0: c698 7bbc ac8c 8d3c 0d7f a2be 2662 f53b
000001f0: 8a60 28bd 2471 12bc 1022 283d 6eeb bebd
00000200: ff98 a2bd 4d51 99bc 644d 37be 8ea1 a73d
00000210: 1e18 63be 6ff8 bd3b ba13 7f3b 96ec 073e
00000220: 1cbe 74bd 691e dcbc 4124 833d 683a 143c
00000230: b64c 893d 2327 44bd f8bb b5bb 8a44 99bc
00000240: eace bcbd 871d 26bc 3350 aebc 07a0 ee3c
00000250: 4dc9 2d3d fe6d 0bbd faa5 57bd ddd6 1e3c
00000260: 1cff 813d f79a 0a3e 1e0f 75bc aef2 81be
00000270: 787a 71bd 0614 d0bd 410f 143d dd18 023c
00000280: 6300 763c a0d8 5b3d 8ac7 bebd d7bb 36ba
00000290: a0e5 b93d 949f bdbd d3bd d33d f8f1 e63d
000002a0: 31b2 c03d 4048 a2bd 80d8 12bd 23ce 233e
000002b0: 2b35 b0be e60c ae3d 44fd 9a3d 93b1 8abd
000002c0: 17bf 353e 5b04 b1bd 7495 36bc c9f4 07be
000002d0: df8e 6b3d 1896 713d dccf 933c a192 323e
000002e0: cfe9 1abc 5591 7b3d 1454 233d c667 54bb
000002f0: 66b1 93be 3a52 bb3c c122 7ebd 6615 6f3e
00000300: 6833 d23c 5c9d 09be 54e4 0a3d 2db4 313e
00000310: 916d 343d 921d 893d 32ba dbbc 5da7 09bd
00000320: 39ab a53d aea5 d23d a0e3 a6bd fb6d 743d
00000330: 6514 9f3c 9ab7 ef3c 7be4 033e 329b b53b
00000340: b84c 493d 942a a83d 557c 963d 3430 183d
00000350: e873 e5be a6ea a73d 4973 9d3d 877b 8c3d
00000360: 6445 cebd 09e5 de3d 994c 8abd fbfd e6bb
00000370: f857 24be 452a 1dbe de99 883d 3986 67bc
00000380: 247a 863d 0de2 313d 65b4 363d 526c e1bd
00000390: ad71 063d 8dba a5bd 0ed4 c7bd b929 bfbd
000003a0: eb74 9cbe e761 e9bd a178 b8bd 91d9 68be
000003b0: 79b6 703d a3e1 173e 305e 893c ec43 c33d
000003c0: ff57 4c3d 4c33 0c3e 87ed b53d 2779 dd3c
000003d0: a990 25bd 5f2f 5abe de97 e6bd 70ab 9ebc
000003e0: b065 b2bc ea23 4d3e 5476 923d c243 b3be
000003f0: 9fd3 103d 0f2e 5fbd 52bf 28bd 7156 06bc
0.16086017 -0.14003003 0.015140665 0.08859466 -0.07666515 -0.12255899 0.023246307 0.048468295
0.014989116 0.007607344 -0.013110397 0.04244074 0.087494835 -0.09232791 0.035907313 -0.07419412
-0.0032003096 0.08408207 0.00690291 0.03421766 0.03685423 0.0132159935 0.023658171 -0.010858972
-0.034528647 0.06318849 -0.023901174 -0.03221325 0.029045334 0.034433205 0.049424265 0.028941773
0.012102451 0.06560038 0.1570011 0.03837785 -0.28914514 -0.08834928 -0.17037539 0.12331925
0.056770984 -0.032530848 0.04002954 0.056602035 -0.08659976 0.07702561 -0.18084538 -0.042659167
0.0079347575 0.18266758 0.034519173 0.10853361 -0.30251786 0.04643758 -0.006549113 0.07707786
0.101846494 0.04689317 0.12631063 0.088078424 -0.02970572 -0.08152877 -0.007633274 0.03231734
-0.022264665 0.051777624 0.09933693 0.09364538 0.10858357 0.025404446 -0.02840993 0.019861218
0.055185862 0.05342948 -0.02998841 0.028939528 0.07729545 0.04652921 0.025925117 -0.036402166
0.032409802 0.054781407 -0.06047739 0.15159963 0.0045510964 -0.035627056 0.00983609 0.04546788
-0.022590963 0.024252826 0.14807734 0.006649227 -0.0035445997 0.08898702 0.01474098 -0.14311317
0.20222954 -0.02517409 -0.014620201 0.04031533 0.04781759 0.010505834 0.046820898 0.05952214
-0.028451893 -0.07472076 0.16311313 0.080818325 0.0038589945 0.08994791 0.045120012 0.051424928
0.02026839 -0.25742686 -0.01561879 0.030680832 -0.030552235 0.044661548 0.108763896 -0.031619575
-0.015356248 0.017278992 -0.31737557 0.007488507 -0.04110769 -0.008938108 0.04104811 -0.093222484
-0.07939338 -0.018715525 -0.17900616 0.08185111 -0.22177169 0.005797438 0.003892167 0.13273844
-0.059751615 -0.02686997 0.06403399 0.009047128 0.067040846 -0.047888886 -0.0055460893 -0.01870944
-0.09219153 -0.010138876 -0.021278476 0.029129041 0.042428304 -0.034040444 -0.052648522 0.009694782
0.063474864 0.13535677 -0.0149572175 -0.25380462 -0.058954686 -0.10160069 0.03614736 0.007940498
0.015014741 0.053673387 -0.09315403 -0.00069707393 0.090770006 -0.09258953 0.103389405 0.112766206
0.09408987 -0.07923937 -0.035851 0.15996604 -0.34415564 0.08498554 0.07567838 -0.06772151
0.17748676 -0.08643409 -0.011144031 -0.13276972 0.0575093 0.05898103 0.018043451 0.17438747
-0.009455158 0.061417896 0.039875105 -0.0032410487 -0.28846282 0.022866357 -0.062044863 0.23348007
0.025659278 -0.13438934 0.033909157 0.17353888 0.044049803 0.06695093 -0.026822183 -0.033606876
0.08089299 0.10285507 -0.08148885 0.059675198 0.019418905 0.029262353 0.12880127 0.0055421824
0.04914543 0.08211246 0.07347933 0.037155345 -0.44814992 0.081990525 0.076880045 0.068594985
-0.10071829 0.10883529 -0.06752891 -0.00704932 -0.16049182 -0.15348156 0.06669973 -0.014131122
0.06566265 0.04342847 0.04460563 -0.110069886 0.032823253 -0.08092222 -0.09757243 -0.0933413
-0.3055795 -0.113956265 -0.09007383 -0.22739245 0.05876777 0.14832167 0.016768545 0.095344394
0.049888607 0.13691443 0.08883195 0.027035309 -0.04042116 -0.21307133 -0.11259435 -0.019368857
-0.021777004 0.20033231 0.071514755 -0.35012633 0.035358068 -0.054487284 -0.041198082 -0.00819932

fc2.bias f4 [256]
00000000: 09ab 193d 5573 633c cbdd f53c 6e98 e8bd
00000010: 30e0 d2bd bf81 d3bd bb34 173d 9d0c ce3c
00000020: dadb 773d 3fc2 bcbc cb3c 96bd 865e f93b
00000030: 02c6 5f3c 3321 fcbd facc 19bd 7c41 babd
00000040: 7451 bf3d 2aa3 24be c1d4 513d 22d0 663d
00000050: 5dc9 75bd b808 25bb afb2 74bd a7d3 cbbc
00000060: 8013 c63d ea29 0b3e 3d4b 953d dc48 ff3c
00000070: 634b 133e 3c2f 49bd 3656 543c 49a6 92bd
00000080: b86e 80bd 6240 d9bd 1c08 a43d 3b6b c43c
00000090: c2ba ffbd 9ac0 7ebe 6fc7 b6bd 420c a2bd
000000a0: 0f50 353d 8e83 2fbc f0a9 07bd 2a69 1b3d
000000b0: 6892 4d3c 58fe 8bbc 4fb7 cebd 4775 5e3d
000000c0: b5e6 efbd e193 dfbd 500e c0ba 9a09 253b
000000d0: 697f 69be af23 4fbd 7963 2cbd bb98 1c3e
000000e0: 99f6 3d3a be06 27be 9132 14be 5491 d83d
000000f0: 8140 f7bd cf8b 033e 22d5 173d 112d 1dbd
00000100: 8108 493d ab1d 313d 10a5 16bc 4e6d 8c3c
00000110: 212e dabd 30ab 853d 2340 a2bd dcdb a63d
00000120: 613d fbbd db98 09bd 20fe a0bc 3c89 e3bc
00000130: bf62 443a 618e 6cbd c162 0ebb d2a4 b7bd
00000140: 3d5d bcbd 8690 d83c 05a2 65bd 2d68 f2bc
00000150: 84b3 263d 2c6c 75bd 7789 44bd 725b b23d
00000160: 4ffc 94bd 4dba bdbb 58e5 97bc 31fd f5ba
00000170: 72f6 0bbe a801 d539 cd32 403d a124 ccbd
00000180: 0f7f 56bd 7534 34be dea1 f5bd c14d 2abd
00000190: 0593 5e3d 05c8 d2ba 500c f53b e764 853c
000001a0: 8969 a33d 10a0 0ebd 430a 9fbd a01c 81bc
000001b0: 9a43 4bbe 10aa ed3c 2d62 71bd ce9f f8bc
000001c0: 1f7f 67bd 6755 2e3c 98c3 0c3e ac14 dcbd
000001d0: 2c7c 7cbd 822c c5bd 06c1 4ebd 2c2b b13c
000001e0: 8e65 47bc 6cf5 0cbe 23c8 d5bc 68f5 153d
000001f0: 822b bebd dbe3 c1bb 69e3 9f3b 8f29 2c3d
00000200: 7676 a8bc a23f b9bd 810b 003d b023 9abb
00000210: ba5c 84bd 7b4c fd3b 2c4d 4f3c 3253 27bd
00000220: 0f82 5cbe f4a0 0dbe 50ba 91bd 4a4c e9bd
00000230: d208 bdbd 5d25 ddbc b5bc 0abe 23c0 05bd
00000240: c933 3cbd 090c d2bd 6924 dcbd 4746 dfbd
00000250: cea1 04be 2941 2c3e 3360 0f3c c9b3 cdbd
00000260: 9a48 5d3d 24fb 15bd 0a41 41be 0482 113b
00000270: 914c acbd de98 583d d2ad 2dbd 8edb 91bd
00000280: d8f2 bebd 7cfb eabb f2ea 0ebc a337 54bd
00000290: 9f9a a8bd 8072 d4bd 9ebd 49be 0bca d0bd
000002a0: def3 803d 2271 52bd bab4 74bd 99eb 9fbd
000002b0: bfd3 c8bd a89e a8bc 9076 fcbc 1203 02be
000002c0: b697 fe3b eeb4 3dbe c93f 423d 873c 54bd
000002d0: 2302 e6bc 55b2 14bd 5a1c 343d 44da 36be
000002e0: 1b9c f6bd c3c8 1dbd 92da d93d 6d31 a6bc
000002f0: e9e8 14bd f153 6ebd 4e52 2fbd ff12 b5bc
00000300: 7c63 6cbd 7b08 96bd b919 d6bd 232e 483d
00000310: b408 aa3d 9d37 4bbd 60b0 bbbb bba9 86bd
00000320: 4be9 d63c 4632 163d 50f5 04bd a0ac 1c3d
00000330: 3946 2bbd bdba bbbd 38a1 1f3d e8fb 9ebd
00000340: 7267 a53c 6b23 41bd 382d 55bd 51b5 8abc
00000350: 5363 c03b 00fc b1bd 3acc a73c ea7a 783b
00000360: 7d4c b53c 4d4f 903c cb8e e03d 17c1 00be
00000370: a6a9 b43c 93f3 4dbd cf29 00bd 4133 053d
00000380: 7b87 693d a43c 04bc fc06 973a 9ac4 e2bd
00000390: 36c6 0ebc b309 943d 100a 06bb 9555 53be
000003a0: 37e2 873c a95d 08be 3d43 873c d1ab 313c
000003b0: 16ae 12be f1c5 b93d 8eb5 813d 4abd 913d
000003c0: f45e 0bbd fc7e a0bc c15d da3c 7d88 193d
000003d0: b876 a93c 72d5 31be 1135 47be 59b8 e3bd
000003e0: 057a 44bd 2881 f6bc 5d42 08be 4003 0fbe
000003f0: 1485 2bba 5314 ce3b 241b bcbc de71 d6bd
0.037516627 0.013882478 0.030012986 -0.11357199 -0.102966666 -0.103274815 0.036915522 0.025152499
0.0605124 -0.023041843 -0.07335814 0.007610145 0.013658049 -0.1231102 -0.037548997 -0.090945214
0.09341708 -0.16077867 0.05122829 0.056350835 -0.060006488 -0.0025182199 -0.05974072 -0.024881197
0.09671688 0.13590208 0.07289741 0.031162672 0.14384227 -0.04911731 0.012960007 -0.071606226
-0.06271118 -0.10607983 0.08009359 0.023976913 -0.12486793 -0.24878159 -0.08924758 -0.07912494
0.044265803 -0.010712517 -0.03312105 0.03794209 0.012547113 -0.017089054 -0.10093557 0.054311063
-0.11713926 -0.109168775 -0.0014652703 0.0025182725 -0.2280251 -0.05057114 -0.042087052 0.15292637
0.0007246524 -0.16311166 -0.14472415 0.10574594 -0.1207285 0.12846301 0.037068494 -0.038373057
0.049080376 0.043241184 -0.009194627 0.017141964 -0.1065333 0.06526792 -0.07922389 0.081474036
-0.122675665 -0.03359304 -0.019652426 -0.0277754 0.0007491521 -0.05775297 -0.0021726342 -0.08966984
-0.09197471 0.026436102 -0.056062717 -0.02959069 0.040698543 -0.059917614 -0.04798266 0.08708848
-0.072746865 -0.005790031 -0.018541977 -0.0018767474 -0.1366823 0.0004062776 0.046923447 -0.09967924
-0.052367266 -0.17598136 -0.11993764 -0.04157806 0.054339428 -0.0016081339 0.0074782744 0.016283466
0.079791136 -0.034820616 -0.07765629 -0.01576072 -0.19850007 0.029011756 -0.05893152 -0.030349638
-0.056517716 0.010640479 0.13746488 -0.1074613 -0.061641857 -0.0962763 -0.05047705 0.021627031
-0.012170209 -0.13765496 -0.02609641 0.03661099 -0.09285642 -0.005917055 0.0048794043 0.04203182
-0.0205643 -0.0904534 0.03126097 -0.0047039613 -0.06462999 0.0077300644 0.012652677 -0.040850826
-0.21533988 -0.1383093 -0.071156144 -0.11391504 -0.09230198 -0.026995355 -0.13548549 -0.03265394
-0.045947824 -0.10256202 -0.10749132 -0.10902076 -0.12952349 0.16821732 0.008750963 -0.10044057
0.054024316 -0.03661646 -0.18872467 0.002220274 -0.084130414 0.05288016 -0.042402096 -0.07121955
-0.093236625 -0.0071710926 -0.0087230075 -0.05181087 -0.08232617 -0.10373402 -0.1970124 -0.10194787
0.06296514 -0.051377423 -0.059742667 -0.078086086 -0.09806012 -0.020583466 -0.030818254 -0.12696484
0.00776955 -0.1852605 0.04742411 -0.051815536 -0.02807719 -0.036302883 0.04397235 -0.17856699
-0.120414935 -0.03852154 0.10637392 -0.02028724 -0.036354933 -0.05818552 -0.0428031 -0.022103785
-0.057712063 -0.07325836 -0.10454125 0.048872124 0.08302441 -0.049613584 -0.0057278126 -0.06575342
0.02623429 0.03666904 -0.03246051 0.038250566 -0.041815016 -0.09166477 0.03897211 -0.07762891
0.020190928 -0.047152918 -0.052045077 -0.016932162 0.0058712154 -0.08690643 0.020483125 0.003791506
0.022131199 0.017615939 0.109647356 -0.12573658 0.02205355 -0.05028112 -0.03128987 0.032519583
0.05701397 -0.0080710985 0.0011522467 -0.11072655 -0.008714249 0.072284125 -0.0020452775 -0.20638116
0.01658736 -0.13316979 0.016511554 0.010844187 -0.14324221 0.090709575 0.06333457 0.07116182
-0.0340261 -0.0195918 0.026656033 0.03748368 0.020686492 -0.17366579 -0.19453837 -0.11119146
-0.04796793 -0.030090883 -0.13306566 -0.13966084 -0.00065429625 0.006289044 -0.02296216 -0.10470937

fc3.weight f4 [2, 256]
00000000: 6179 d7bc 20ae f33d 840f c1bd 5aa8 16bd
00000010: 1800 933e 0752 8fbd 7cc4 3e3d 2f40 f43d
00000020: 614a 8dbb 4519 85be 6ac8 223e a1b3 c13d
00000030: 2e84 bd3e 0975 6c3e 169e 18bd df6e dc3d
00000040: 05b6 123d 4e9a 243f 561e 8a3d 9d14 7c3d
00000050: bcbe 213f 0724 0cbe c611 01bd 5c3c 3a3e
00000060: 869d e73b 6f7b 5ebd d85a 3a3d 12a7 153e
00000070: 512f 823c 3d52 28be 9b88 1a3e 8968 42be
00000080: 3e80 cf3e 5b94 d2bc f8b0 c63d bcca 923d
00000090: 3dc8 d8be 6194 ab3e cbf8 e1be 7762 bdbe
000000a0: 4a75 6a3c 3f19 46bd c6fd 95bf 889a 163d
000000b0: 4c16 5d3e 3a62 35be f2c0 10be 8474 183c
000000c0: 902d 1f3f 4bff d13d 8e25 a63d 759c bc3e
000000d0: 27d8 4fbf 3dde 873d 362b 7dbe 3a2d 9abc
000000e0: fac5 763e 6a5c b1bd ce18 11bf 4270 ad3d
000000f0: a64f 313e ad60 033c 0c26 3c3d df38 ad3e
00000100: c433 0d3e 5df0 083d 7290 75be 21fa a3bc
00000110: 8b8c f2be 1614 693c a743 37be 5b98 a53e
00000120: 0bcd 06bf e223 06be cfbe 9dbd 1775 5a3e
00000130: adc2 883e cd23 a2be 1875 34be 3a18 36be
00000140: 3752 79bf 6085 c43d da38 e8bd c6ab 97bd
00000150: 0262 493e 3a1e 9cbe 3951 e73d 7eae 253f
00000160: 6ed4 81be 01ad b63e 845b 643e 35fc da3e
00000170: 0259 0ebf 7a6e f63c 7b16 2a3f ad3d a9be
00000180: 9e69 96bf 2aaf dd3d 59f0 dabf 6b7e 60bd
00000190: 01af 1b3e d47d 523e 7fce c23d 259a c43e
000001a0: eabb 603d a521 c3bc cd09 6dbe 6d9b 9c3e
000001b0: b4ba f3be 1aa2 8d3e 9319 713d 2295 2a3e
000001c0: 810c 023d 51a4 0c3e 0402 e9bc 5361 fbbe
000001d0: b386 71be 44ce 073e dc17 4d3e 1bff b5bd
000001e0: 2ba7 583e 9f8e e1be 3491 2c3d 4b3a 653e
000001f0: 5fff 18be 33d1 2e3d 427e 443e 8d38 dfbc
00000200: 1efd 4dbc a2f9 d53d 0d6b 0d3e 216e 0ebe
00000210: a4db 00be c379 d0be 80bb 23bd b9e4 1dbe
00000220: 6524 22bf 9cba 9a3d 2827 73be 8fad 8bbf
00000230: 49bd 2f3e d4b0 083e f3cf 78be 9ebb 04bd
00000240: d632 a13d 6025 f1be 0619 41be 0c5d 4bbc
00000250: 35e5 b1be 863f 78bd 7698 f53d da1d 80be
00000260: 2bcc 2b3e d54a 48be d5f6 81bf 1c69 953d
00000270: 06af 373e 3ad9 593d 914d e1be 5b06 50be
00000280: f65a cfbd d576 b53c 8e77 603c f8b1 c63e
00000290: fe1a 4fbe 0e7d f8bc ef29 bbbe a944 fabd
000002a0: f90b ae3d 6630 703d 2b4c 8abe daad 01bf
000002b0: 8745 033e 3568 9dbd 93dc cebc b532 17be
000002c0: d478 cd3d 5389 1dbd 3476 7d3d 6e74 25bf
000002d0: 34ce fd3d d6e6 c03c c9a2 6bbd b6a0 603e
000002e0: 20fe b93c ad24 6e3e b170 033e d803 d8bd
000002f0: e7fc 71bc 4dc7 b6bf 82d5 063e 68b9 b13e
00000300: 1a81 243e 86dc 863e ac4f 57bf a25a 3cbd
00000310: 5b1b b1bd 5a41 673e cf0a 0dbd 81ff f8be
00000320: 5425 bdbd b895 26bd 5c3e eb3e 8cbd 1abe
00000330: 46b4 a1be 5b3d 90be 52e1 2f3e dd89 81bf
00000340: a981 eb3d 54e9 9dbd 5214 26bd 85fe 273e
00000350: 3058 153d e099 a43e 5ce1 203e f225 493e
00000360: 28df 373e f4b6 073f e6bd 8cba ed80 d6be
00000370: 8727 93bd 2545 633e f339 d43e ef0a 883e
00000380: e089 1c3e 183f 153e d5a2 a5bc 98c7 38be
00000390: 2b67 563e d48d 15bc 8942 893d f91f 63bf
000003a0: 166e 193c f3ba 11be f6d9 d53c beb9 ec3e
000003b0: d56a 97bd 3ede ca3d 262c aa3e 10b9 723e
000003c0: 63c2 abbd 3180 7b3b 899f 573e 9c60 07bd
000003d0: aa21 c23c 2601 443e dce4 093f 0e2b c03e
000003e0: ed63 ab3d f96a 42bd f7e1 923e 57e7 133f
000003f0: 0fd9 6c3e 1889 ddbc 90ac a43e b731 8ebf
-0.026302995 0.11898446 -0.094267875 -0.036781646 0.2871101 -0.06998067 0.0465741 0.119263045
-0.004311845 -0.25995842 0.15896764 0.094580896 0.37014908 0.2309152 -0.037260137 0.107633345
0.03581812 0.6429795 0.06744067 0.061543096 0.6318166 -0.13685618 -0.03151109 0.18187088
0.007068339 -0.054316934 0.04549679 0.14614514 0.015891703 -0.16437621 0.15091173 -0.1898519
0.4052753 -0.025705507 0.09701723 0.07167575 -0.4234027 0.33511642 -0.44135126 -0.36989185
0.01431019 -0.04836392 -1.171807 0.036768466 0.21590537 -0.17713252 -0.14136103 0.009305123
0.621789 0.102537714 0.08112632 0.36838117 -0.811892 0.066341855 -0.24723515 -0.018820394
0.2409896 -0.08660205 -0.56678474 0.08468677 0.1731554 0.008018655 0.04593472 0.33832452
0.13789278 0.033432353 -0.23980883 -0.020016732 -0.4737285 0.01422598 -0.17896901 0.323428
-0.5265662 -0.13099626 -0.077024095 0.21333729 0.26711026 -0.3166794 -0.17622793 -0.17782679
-0.97391075 0.09595752 -0.113389686 -0.0740581 0.19666293 -0.3049181 0.11294789 0.6471938
-0.25357383 0.35678867 0.22300535 0.42770544 -0.55604565 0.030081976 0.6644055 -0.33054867
-1.1750982 0.108244255 -1.7104598 -0.05480806 0.15203477 0.20555812 0.09512042 0.38398853
0.05486671 -0.023819754 -0.2314827 0.3058733 -0.4760338 0.27662736 0.05886228 0.16658452
0.031750206 0.13734557 -0.028443344 -0.4909769 -0.2358654 0.13262278 0.20028633 -0.08886548
0.2115752 -0.44054124 0.042130664 0.22385518 -0.14941166 0.042679977 0.19188789 -0.027248645
-0.012572555 0.10448004 0.13810368 -0.13909198 -0.12583786 -0.40717897 -0.039973736 -0.15419282
-0.63336784 0.07555124 -0.23745406 -1.0912341 0.1716205 0.13348705 -0.24298076 -0.03240549
0.07871024 -0.47098827 -0.18857202 -0.012412321 -0.34745184 -0.060607456 0.1199197 -0.25022775
0.16777103 -0.19559796 -1.0153452 0.07295439 0.1793786 0.05318568 -0.4400449 -0.20314924
-0.10124771 0.02215139 0.013700379 0.38807654 -0.2022514 -0.030333068 -0.3655543 -0.12220127
0.08498377 0.058639906 -0.27011237 -0.506559 0.12819491 -0.076858915 -0.025251662 -0.14765437
0.10032812 -0.03846104 0.061880305 -0.6463078 0.12392846 0.023547571 -0.05752829 0.21936306
0.022704184 0.23256178 0.12835957 -0.10547608 -0.014769769 -1.4279572 0.13167384 0.34711766
0.16064873 0.2634012 -0.84105945 -0.04598487 -0.08647796 0.22583523 -0.034434136 -0.48632434
-0.092356354 -0.040670127 0.45946014 -0.15111369 -0.3158285 -0.2817181 0.17175797 -1.0120198
0.1149934 -0.077105194 -0.040546723 0.16405685 0.036461055 0.32148647 0.15710968 0.19643381
0.17956221 0.5301354 -0.0010737746 -0.41895238 -0.071852736 0.22194345 0.41450462 0.26570842
0.1528697 0.1457485 -0.020219246 -0.18044889 0.20937793 -0.009128053 0.06702144 -0.8872066
0.009364625 -0.14231472 0.026104908 0.4623546 -0.073934235 0.099056706 0.33236808 0.23703408
-0.08386686 0.0038375969 0.21056952 -0.03305112 0.023697693 0.19141063 0.53864837 0.37532848
0.08368669 -0.0474653 0.28688022 0.5777487 0.23129676 -0.02704291 0.32162905 -1.1108922

fc3.bias f4 [2]
00000000: 730b 303d 5325 d4bd
0.04297967 -0.103586815
